segformer_model_lora_adapter_b1/adapter_model.safetensors (safetensors, 532252 bytes, 34 tensors)

base_model.model.decode_head.classifier.bias f4 [3]
0.022008546 -0.047032285 -0.0017937609
00000000: 444b b43c eda4 40bd a11c ebba

base_model.model.decode_head.classifier.weight f4 [3, 256, 1, 1]
0.11746798 -0.04695407 0.057494152 -0.10106186 -0.044399317 -0.074447066 0.04197414 -0.06874643
-0.08242508 0.08315974 0.04941837 -0.06920264 -0.08434107 0.057797063 -0.0042292294 0.048059046
-0.08098053 0.078174375 -0.042926125 -0.046564683 0.051147033 -0.023114247 -0.07025009 0.043273687
0.1037514 0.0633276 0.0025573226 0.052401796 0.08974035 -0.00050501345 0.04389633 -0.07829955
0.0265185 0.07545414 0.1271859 0.050081532 -0.011542431 0.060851783 -0.035281643 0.066558726
-0.04127635 -0.04498975 -0.05741029 0.030671997 -0.03656578 0.02484042 0.057689082 0.008904298
0.057127293 -0.01570513 0.09231815 0.06553067 0.014396925 -0.05459765 0.0051076477 0.036542818
-0.07049168 -0.046687745 0.066612616 -0.060006883 -0.0395901 0.070732065 -0.003944042 -0.008599482
-0.032771986 0.06418041 -0.037491802 0.10025669 0.05480562 -0.05975411 0.011834315 -0.061692998
-0.037252683 0.03369621 -0.09479754 -0.088176936 -0.074872315 0.07378359 -0.017215991 0.003051289
0.0058221538 -0.043970104 -0.0016577621 -0.08985267 0.08711699 -0.066532895 0.032678373 -0.07616422
0.08017338 -0.043301027 0.07534435 -0.07361879 -0.07402574 0.08212053 0.04826873 -0.049830794
0.0010068794 0.031117404 -0.059136555 0.040478203 0.06409054 -0.084302634 -0.037098374 0.07132712
-0.06711543 -0.11050106 -0.066753805 -0.088233575 0.07796609 0.07342627 0.061997388 0.078828074
0.040399946 -0.040311176 0.064599946 -0.051408507 0.027388165 0.02281364 0.008088751 -0.024242723
-0.00075741473 0.09036795 0.018466672 0.104388304 -0.020432929 -0.030728783 -0.052244782 0.080133386
0.07034125 0.039306972 -0.11964713 0.0363685 0.045260414 0.0875835 0.10978623 0.057689823
0.09335449 -0.061143655 -0.04342184 0.06637744 -0.06389583 -0.08250619 0.08885616 0.06855321
0.057402495 -0.04071681 0.06290324 0.04284395 0.044150002 -0.054747023 -0.043218073 0.049994197
-0.057490524 0.060972366 0.08118297 0.10939728 0.0020585961 0.03530998 0.059370924 0.056359492
-0.034589432 0.011357699 0.00063398323 0.029454518 0.04269302 0.057319246 0.04701678 0.0662885
-0.028785583 0.08381673 -0.071962155 0.064407565 0.04496146 -0.03476925 -0.034380574 -0.08776698
0.07137482 -0.027344413 0.094932914 0.0476759 -0.05903792 -0.005222475 0.061255626 0.07677174
-0.0093508065 -0.008363549 -0.0050657024 -0.08439438 0.05461277 0.02154092 -0.027818792 0.050428677
-0.03276862 -0.038082436 -0.043165516 0.090564206 0.014994525 -0.017774759 0.0032409886 -0.055688385
-0.040028233 -0.050784793 -0.045585383 0.047296923 -0.011952442 -0.07407626 -0.013241711 -0.071174756
-0.023837985 0.06086326 0.06454746 0.08905 0.049915165 -0.030709779 0.04466828 0.02712454
0.036175977 -0.04412307 -0.033664774 -0.05475873 0.022764146 -0.059983592 0.051482886 0.05128731
0.08700716 0.056705564 0.045939855 0.07053146 0.04594879 0.06973566 -0.075556815 -0.06463685
-0.014173214 0.074324496 0.07391193 -0.07628046 0.042923886 0.06694019 0.060459968 0.085279524
-0.0881223 -0.085918516 -0.041135333 -0.04686741 0.07452803 -0.0035116859 0.0655108 0.003576941
-0.041795034 -0.008965204 -0.019995967 0.04377757 0.07363923 0.050884265 0.07266485 0.08274573
00000000: 0d93 f03d e952 40bd fd7e 6b3d 85f9 cebd
00000010: 0fdc 35bd b477 98bd 13ed 2b3d eeca 8cbd
00000020: 7bce a8bd a74f aa3d eb6a 4a3d 1dba 8dbd
00000030: 03bb acbd 9dbc 6c3d 5995 8abb 90d9 443d
00000040: 1fd9 a5bd e319 a03d 4ed3 2fbd 9cba 3ebd
00000050: 8d7f 513d 175a bdbc 47df 8fbd c03f 313d
00000060: 9d7b d43d e7b1 813d c198 273b 44a3 563d
00000070: cac9 b73d e162 04ba a3cc 333d 845b a0bd
00000080: 533d d93c b387 9a3d 053d 023e 4b22 4d3d
00000090: 771c 3dbc b83f 793d 7c83 10bd f14f 883d
000000a0: 6411 29bd 2c47 38bd 0d27 6bbd d743 fb3c
000000b0: 00c6 15bd 237e cb3c 634b 6c3d 55e3 113c
000000c0: 4ffe 693d 0ba8 80bc 4c11 bd3d f234 863d
000000d0: 15e1 6b3c c9a1 5fbd 0e5e a73b ecad 153d
000000e0: f15d 90bd a63b 3fbd 326c 883d c7c9 75bd
000000f0: 3b29 22bd f9db 903d 063d 81bb d7e4 0cbc
00000100: eb3b 06bd 0571 833d 0191 19bd 6153 cd3d
00000110: dc7b 603d bac0 74bd b7e4 413c ccb1 7cbd
00000120: 4596 18bd 0905 0a3d 3625 c2bd 1c96 b4bd
00000130: a856 99bd da1b 973d 8d08 8dbc 22f8 473b
00000140: c4c7 be3b ff19 34bd 4449 d9ba ad04 b8bd
00000150: 646a b23d 6642 88bd c2d9 053d fdfb 9bbd
00000160: f131 a43d 6b5c 31bd 234e 9a3d 73c5 96bd
00000170: cf9a 97bd cf2e a83d 6fb5 453d 601b 4cbd
00000180: 44f9 833a ede9 fe3c 2c39 72bd 79cc 253d
00000190: e741 833d dca6 acbd 77f4 17bd f413 923d
000001a0: d173 89bd 614e e2bd 38b6 88bd ceb3 b4bd
000001b0: afac 9f3d 8360 963d f9f0 7d3d 9d70 a13d
000001c0: 6a7a 253d 551d 25bd fa4c 843d ba91 52bd
000001d0: 255d e03c ace3 ba3c ae86 043c ad98 c6bc
000001e0: 3e8d 46ba d512 b93d 6b47 973c 89c9 d53d
000001f0: f562 a7bc eeba fbbc a0fe 55bd f91c a43d
00000200: 130f 903d 5900 213d 8e09 f5bd 23f7 143d
00000210: fc62 393d fa5e b33d 9ad7 e03d 2a4c 6c3d
00000220: a430 bf3d c571 7abd 19db 31bd e5f0 873d
00000230: d1db 82bd 01f9 a8bd 38fa b53d a065 8c3d
00000240: e11e 6b3d abc6 26bd 6ad3 803d 237d 2f3d
00000250: a2d6 343d 6a3e 60bd 6f05 31bd b7c6 4c3d
00000260: 2f7b 6bbd 29be 793d 4243 a63d ae0b e03d
00000270: 83e9 063b 33a1 103d ed2e 733d 36d9 663d
00000280: a6ad 0dbd a415 3a3c e531 263a 9a4a f13c
00000290: e0de 2e3d 96c7 6a3d ab94 403d 44c2 873d
000002a0: becf ebbc 1ba8 ab3d e560 93bd 1de8 833d
000002b0: 8229 383d 336a 0ebd a5d2 0cbd 2dbf b3bd
000002c0: f62c 923d 6401 e0bc 306c c23d ce47 433d
000002d0: bfd1 71bd 4c21 abbb 2ee7 7a3d 813a 9d3d
000002e0: 2034 19bc 4407 09bc 31fe a5bb f6d6 acbd
000002f0: a4b1 5f3d 9576 b03c 3ce4 e3bc 4d8e 4e3d
00000300: 6338 06bd 54fc 1bbd 53ce 30bd ba79 b93d
00000310: 99ab 753c 5f9c 91bc c466 543b 8119 64bd
00000320: a5f4 23bd b703 50bd bdb7 3abd 6bba 413d
00000330: 2dd4 43bc 4bb5 97bd c3f3 58bc 12c4 91bd
00000340: e147 c3bc c14b 793d 7531 843d d95f b63d
00000350: d873 4c3d 1393 fbbc 16f6 363d 4934 de3c
00000360: 432d 143d 64ba 34bd 13e4 09bd b14a 60bd
00000370: e07b ba3c 5bb1 75bd b8df 523d a412 523d
00000380: cf30 b23d 1844 683d 6e2b 3c3d cc72 903d
00000390: cc34 3c3d 92d1 8e3d 88bd 9abd 5360 84bd
000003a0: c536 68bc 7137 983d 235f 973d ee38 9cbd
000003b0: f5d0 2f3d f017 893d dfa4 773d 08a7 ae3d
000003c0: 7779 b4bd 0cf6 afbd 867d 28bd 0bf8 3fbd
000003d0: 27a2 983d 5024 66bb 872a 863d 1d6b 6a3b
000003e0: 4531 2bbd cae2 12bc 95ce a3bc 1c50 333d
000003f0: 2ad0 963d 056c 503d 4fd1 943d 9876 a93d

base_model.model.segformer.encoder.block.0.0.attention.self.query.lora_A.weight f4 [16, 64]
-0.12884171 0.19213524 0.05639959 -0.071374975 0.12667203 -0.021318555 -0.16042452 0.11603074
-0.11503818 0.070156135 0.004749612 -0.12403697 0.038595684 -0.12429617 0.14358345 -0.10128527
-0.10589808 -0.11254782 -0.037478324 -0.119848885 0.10892089 0.06692805 -0.0122188935 -0.03294508
0.046388388 0.12775867 -0.086394735 -0.10431793 0.108412996 0.11381604 0.11237026 0.04993386
0.08859572 -0.091187045 -0.025959179 0.041821484 0.13204321 -0.13034283 -0.08114189 -0.052193865
-0.0326689 0.087258555 0.0059347325 0.020531267 0.10793017 0.09841929 -0.21434046 -0.008739809
0.15328956 -0.16002966 0.013765168 0.05148753 -0.03392947 0.058630396 0.09530287 -0.10501412
-0.011354051 -0.011159675 0.061073758 0.0918375 -0.030046988 -0.029872056 0.030026518 0.10361994
0.038933028 0.1199835 0.115431 0.22433814 -0.03632876 -0.117529 -0.09767148 -0.036241576
0.10510593 -0.016933907 -0.10102197 -0.014636849 0.11076099 -0.1154913 0.048053954 0.01587247
-0.008199986 0.04195269 -0.022110943 0.10480921 -0.018139226 0.011407542 -0.1738567 -0.09639294
-0.052099645 -0.096209146 -0.12941386 -0.03490557 -0.033532064 -0.002751552 -0.026418496 -0.02296152
0.006919957 0.10292715 -0.14101245 0.0061886893 -0.034276854 -0.0575925 -0.019575963 0.10858714
-0.02550549 -0.08486779 -0.10938692 0.048162714 0.028394725 0.1408835 0.15020207 -0.119723715
0.049455356 0.11705534 0.013768385 -0.123063065 -0.08970689 -0.19562915 -0.0070556495 0.2144733
-0.03477664 -0.12641868 0.032242585 -0.071578965 -0.030668696 0.05036448 0.22131208 -0.061615013
0.02529559 0.1258793 -0.08165953 -0.07275308 -0.07535583 -0.10612435 -0.033743307 -0.034078825
-0.05234589 0.116975695 -0.009683062 0.022571042 -0.021358784 0.17852505 0.12105794 -0.03620679
0.037617225 0.13776654 -0.020865818 0.0485229 0.040706683 0.00067142874 -0.004461884 0.11707698
-0.027327387 0.09773032 -0.024974618 0.06362684 0.08724199 0.028409798 -0.031807173 -0.04509906
0.10988762 -0.15524185 0.13828932 -0.13547143 0.033337038 0.016229898 0.04949545 -0.09103858
-0.121324636 -0.035629857 0.1438211 0.07243058 0.022028489 -0.036295813 -0.10785743 0.13470046
-0.07023676 0.15960835 -0.11737651 0.09616881 0.101574495 -0.088209584 0.008238355 0.08298174
0.061448094 0.11477937 -0.08099212 0.096702024 0.009328346 0.10496913 -0.11112239 -0.001771987
-0.011259438 -0.03948654 -0.07467475 0.004539631 -0.06126165 0.028879806 -0.07943229 -0.0073266793
0.1006113 0.052190796 0.009629237 0.030872507 -0.11497394 0.1386183 0.11153053 -0.19607905
0.025581494 0.1009596 -0.10048094 -0.1528361 -0.13120958 -0.050318256 0.05402254 0.06186104
-0.078385815 0.09787327 -0.057205494 0.03487764 -0.06523206 -0.005643849 0.010357603 0.082506955
0.029397428 0.011875661 0.14194836 0.07803209 0.11356253 0.12871405 0.04885744 -0.00025075203
-0.023243088 -0.20569715 0.12042252 -0.0003350245 0.077302925 0.06773759 -0.028020129 -0.059612382
0.03708408 0.011950491 -0.07039915 0.10514882 0.16148175 -0.07084764 0.10794419 -0.12236551
0.08345378 0.09738863 -0.09055558 0.1244789 -0.11688151 -0.0038676234 0.098180085 0.064278975
00000000: 15ef 03be 1abf 443e 4203 673d 0b2d 92bd
00000010: 50b6 013e 40a4 aebc 5346 24be 86a1 ed3d
00000020: 2399 ebbd 05ae 8f3d a2a2 9b3b 1807 febd
00000030: 8216 1e3d fe8e febd 8a07 133e a76e cfbd
00000040: 18e1 d8bd 797f e6bd df82 19bd 5573 f5bd
00000050: ea11 df3d 9311 893d c131 48bc 6cf1 06bd
00000060: c001 3e3d 2bd3 023e b9ef b0bd a4a4 d5bd
00000070: a207 de3d 6218 e93d 6122 e63d 7287 4c3d
00000080: ac71 b53d 46c0 babd 58a8 d4bc 014d 2b3d
00000090: 5636 073e 9778 05be b82d a6bd 3cc9 55bd
000000a0: d3cf 05bd 9db4 b23d 2578 c23b 3031 a83c
000000b0: 7e0a dd3d 0d90 c93d 117c 5bbe 6a31 0fbc
000000c0: f0f7 1c3e d1de 23be 4d87 613c 97e4 523d
000000d0: a1f9 0abd 6d26 703d 272e c33d a511 d7bd
000000e0: 5706 3abc 12d7 36bc 7a28 7a3d 4d15 bc3d
000000f0: 1a25 f6bc 3eb6 f4bc 2cfa f53c b136 d43d
00000100: 3d78 1f3d e9b9 f53d 1767 ec3d e6b8 653e
00000110: 77cd 14bd 0bb3 f0bd fc07 c8bd 0c72 14bd
00000120: c741 d73d fab8 8abc 9be4 cebd 65cf 6fbc
00000130: a8d6 e23d b486 ecbd 39d4 443d fb06 823c
00000140: 3c59 06bc 95d6 2b3d 0222 b5bc 36a6 d63d
00000150: b798 94bc b3e6 3a3c 7e07 32be a969 c5bd
00000160: 7066 55bd 4d09 c5bd 1185 04be 25f9 0ebd
00000170: eb58 09bd 6253 34bb 9a6b d8bc cc19 bcbc
00000180: cfc0 e23b 78cb d23d 9165 10be 7dca ca3b
00000190: e365 0cbd 1de6 6bbd c55d a0bc ef62 de3d
000001a0: e4f0 d0bc 2acf adbd 4006 e0bd 4446 453d
000001b0: 0e9c e83c c443 103e 92ce 193e b531 f5bd
000001c0: b391 4a3d b6ba ef3d cb94 613c 7d08 fcbd
000001d0: 3fb8 b7bd 0253 48be 1433 e7bb e49e 5b3e
000001e0: f371 0ebd e673 01be cd10 043d fe97 92bd
000001f0: eb3c fbbc fc4a 4e3d a29f 623e 0660 7cbd
00000200: b238 cf3c 81e6 003e 1d3d a7bd 91ff 94bd
00000210: 2854 9abd b957 d9bd 6c36 0abd 3d96 0bbd
00000220: a568 56bd f490 ef3d b5a5 1ebc e8e6 b83c
00000230: 9ef8 aebc 45cf 363e 3aed f73d 924d 14bd
00000240: 8514 1a3d ac12 0d3e cbee aabc f3bf 463d
00000250: 0dbc 263d d202 303a ff34 92bb 0ec6 ef3d
00000260: afdd dfbc d626 c83d 9297 ccbc ca4e 823d
00000270: eeab b23d aabb e83c 3d48 02bd cbb9 38bd
00000280: c30c e13d b8f7 1ebe b79b 0d3e 06b9 0abe
00000290: 6b8c 083d 90f4 843c bebb 4a3d 6f72 babd
000002a0: 0d79 f8bd 9df0 11bd d745 133e 7c56 943d
000002b0: 1775 b43c ebaa 14bd 5be4 dcbd ebee 093e
000002c0: 4ad8 8fbd 5f70 233e 1863 f0bd 27f4 c43d
000002d0: 4a06 d03d 3aa7 b4bd 2afa 063c 55f2 a93d
000002e0: ffb0 7b3d 7211 eb3d 32df a5bd b60b c63d
000002f0: ebd5 183c 0efa d63d 2394 e3bd 0442 e8ba
00000300: 8179 38bc a3bc 21bd 13ef 98bd 2fc1 943b
00000310: 7fed 7abd 5895 ec3c 65ad a2bd a414 f0bb
00000320: 4c0d ce3d 04c6 553d f3c3 1d3c 57e8 fc3c
00000330: 7577 ebbd f5f1 0d3e 1e6a e43d f2c8 48be
00000340: 4890 d13c e8c3 ce3d f3c8 cdbd 1181 1cbe
00000350: ce5b 06be 841a 4ebd bd46 5d3d 0062 7d3d
00000360: be88 a0bd c871 c83d 4f50 6abd dbdb 0e3d
00000370: 6398 85bd 09f0 b8bb f0b2 293c 68f9 a83d
00000380: e0d2 f03c 2292 423c e95a 113e 4acf 9f3d
00000390: 7993 e83d 9ecd 033e bd1e 483d 5e77 83b9
000003a0: 4a68 bebc 46a2 52be 15a0 f63d 3aa6 afb9
000003b0: ff50 9e3d 01ba 8a3d 788a e5bc 1d2c 74bd
000003c0: 7ae5 173d fecb 433c 6e2d 90bd 4458 d73d
000003d0: 795b 253e 9118 91bd d811 dd3d c59a fabd
000003e0: d1e9 aa3d b173 c73d 3475 b9bd cbee fe3d
000003f0: 935f efbd f477 7dbb a412 c93d b2a4 833d

base_model.model.segformer.encoder.block.0.0.attention.self.query.lora_B.weight f4 [64, 16]
0.03786892 -0.13305858 0.042805642 0.056895524 -0.004330053 -0.035180375 0.0736246 0.0074286475
0.044391423 -0.046800267 -0.0015546044 -0.03472659 -0.070357904 0.008610379 -0.06557708 -0.041605443
-0.04333877 -0.09368862 0.052289333 0.077470735 0.07371535 0.036202855 0.06153281 -0.124083154
0.007234765 -0.024094747 0.037411902 -0.0075967326 0.04799196 0.023727229 -0.07574289 -0.020353206
-0.025391877 0.019583702 -0.055975582 -0.07433019 0.007578345 -0.01571222 -0.04275711 0.006227101
-0.07506619 -0.015274165 0.07560846 0.052305065 0.019683275 -0.025315076 0.054414976 -0.017112894
0.047108177 0.09960026 -0.07767301 -0.0599679 -0.010411416 -0.0007876826 -0.08314454 -0.07085074
-0.07425779 -0.055273827 0.080145866 0.10643889 -0.021060837 -0.07493102 0.03484279 -0.09339775
0.064293884 -0.044680364 0.058634624 0.05991163 -0.028727137 0.0040985965 0.04481376 0.03515259
0.080185786 -0.00492968 -0.07750606 -0.058547657 -0.05621438 0.01792729 -0.053171277 0.0046269773
0.11492662 -0.08128026 0.026191548 -0.034880657 -0.116956726 -0.11412328 0.059469797 0.18843804
0.059065595 -0.017130965 -0.013613052 -0.080800004 -0.140847 0.006215095 0.01770661 -0.019258702
-0.026960606 -0.037911516 0.02013881 0.03689664 0.017303707 -0.003704287 0.029983642 0.049717758
0.038771525 0.032193694 -0.034398515 -0.05209961 0.021318018 0.045372203 -0.014978313 0.0492998
0.021044586 0.010157796 0.0062268605 -0.0022655504 -0.022385105 3.337949e-06 0.0024817868 -0.021510167
0.0015052136 -0.005849264 0.00019125358 0.014904769 -0.020111006 -0.01678083 -0.00860433 -0.018510897
0.05303504 -0.0036944281 0.05085088 0.05641572 -0.028524498 0.01493463 0.023864822 0.011312806
0.07535998 0.0123768365 -0.08734053 -0.044696536 -0.035776697 0.015483827 -0.04320122 0.017663954
-0.057224933 -0.06084189 0.022381082 0.010428791 0.04315765 0.025453174 0.034234457 -0.03641908
-0.03302586 -0.041092996 0.057900492 -0.0069488855 0.021716585 -0.008384182 -0.008786804 -0.038446553
-0.083963975 0.032630842 0.006225995 0.011727931 0.05021091 0.08267397 -0.013636982 -0.11795115
-0.043899063 0.007933577 0.013103644 0.050207656 0.08059447 -0.009508835 -0.010899389 0.00039201326
-0.01748158 -0.0015734384 -0.057322524 0.020862833 0.088416345 0.049956378 -0.04852768 -0.14399612
-0.03271478 -0.06691834 0.067198455 0.07117989 0.034067698 -0.029179135 -0.04420816 -0.09982866
0.02175368 0.043433443 0.030918347 0.031197984 -0.033735484 0.02989881 0.0005568301 -0.013779925
0.059412032 0.06389392 -0.07241052 -0.01895527 0.007202153 0.025856836 -0.035484478 0.051364608
-0.05033672 0.013181605 0.055408172 0.07789114 0.040427573 0.06432662 0.02566262 -0.07424578
0.08336923 0.08918488 -0.08518093 -0.051955406 0.077301584 0.069090724 -0.068956435 0.09712896
-0.05821255 -0.04261552 0.057009168 0.053483576 0.050867938 0.05617891 0.028650992 -0.0805127
0.013312324 0.02723896 -0.009224445 -0.010555254 0.061479677 0.039732497 -0.056382813 0.055339687
-0.046109825 0.12459287 -0.051097587 -0.07899439 -0.0009675676 0.028898241 -0.0783434 -0.0060658166
-0.06093588 0.05636089 0.01860316 0.05119183 0.075080924 -0.007477876 0.06939607 0.05369825
00000000: 711c 1b3d 8240 08be f854 2f3d 480b 693d
00000010: 1ee3 8dbb 4c19 10bd 7fc8 963d 036c f33b
00000020: c8d3 353d a3b1 3fbd dec3 cbba 783d 0ebd
00000030: ce17 90bd 8c12 0d3c 474d 86bd 786a 2abd
00000040: fe83 31bd d2df bfbd 572d 563d faa8 9e3d
00000050: 13f8 963d 7249 143d d409 7c3d 4f1f febd
00000060: 9c11 ed3b 5962 c5bc 393d 193d 03ee f8bb
00000070: 3893 443d 9b5f c23c 171f 9bbd c4bb a6bc
00000080: a002 d0bc 006e a03c a746 65bd 6d3a 98bd
00000090: c453 f83b eab6 80bc 1422 2fbd b60c cc3b
000000a0: 4dbc 99bd 7e40 7abc 9cd8 9a3d d63d 563d
000000b0: d23e a13c 9061 cfbc 3de2 5e3d 5730 8cbc
000000c0: 81f4 403d 39fb cb3d 0713 9fbd e7a0 75bd
000000d0: a594 2abc 7c7c 4eba af47 aabd 311a 91bd
000000e0: 7814 98bd cf66 62bd 8423 a43d a2fc d93d
000000f0: c787 acbc 6f75 99bd 50b7 0e3d 5247 bfbd
00000100: 83ac 833d c202 37bd dc2a 703d e665 753d
00000110: 2c55 ebbc 854d 863b a28e 373d 2afc 0f3d
00000120: 7238 a43d 2789 a1bb 7fbb 9ebd abcf 6fbd
00000130: 0d41 66bd 41dc 923c 20ca 59bd e69d 973b
00000140: a65e eb3d 4476 a6bd a88f d63c 05df 0ebd
00000150: 0287 efbd 77b9 e9bd 9a96 733d e7f5 403e
00000160: c4ee 713d 3d56 8cbc 4709 5fbc 797a a5bd
00000170: 323a 10be ffa7 cb3b 740d 913c 6dc4 9dbc
00000180: 7ddc dcbc 1b49 1bbd 25fa a43c ee20 173d
00000190: 81c0 8d3c a0c3 72bb 41a0 f53c d9a4 4b3d
000001a0: e4ce 1e3d 89dd 033d 75e5 0cbd 6766 55bd
000001b0: 20a3 ae3c 34d8 393d 9967 75bc 96ee 493d
000001c0: b265 ac3c e26c 263c b10a cc3b a179 14bb
000001d0: f860 b7bc 8701 6036 79a5 223b 1736 b0bc
000001e0: 964a c53a 2fab bfbb 3e8b 4839 2233 743c
000001f0: d6bf a4bc f477 89bc 2df9 0cbc 2aa4 97bc
00000200: 453b 593d 381e 72bb 0349 503d 2c14 673d
00000210: 35ac e9bc 61b0 743c 2980 c33c 5959 393c
00000220: 5556 9a3d 37c8 4a3c 97df b2bd b713 37bd
00000230: 968a 12bd e1af 7d3c c3f3 30bd ffb3 903c
00000240: b164 6abd 5835 79bd 8858 b73c 85dd 2a3c
00000250: 13c6 303d 2d83 d03c 6e39 0c3d 2c2c 15bd
00000260: 2046 07bd 2151 28bd 1129 6d3d 7ab3 e3bb
00000270: fbe6 b13c cf5d 09bc 87f6 0fbc 227a 1dbd
00000280: 4ef5 abbd eba7 053d 6e03 cc3b 8226 403c
00000290: f5a9 4d3d f850 a93d a66d 5fbc 5f90 f1bd
000002a0: 81cf 33bd d5fb 013c abb0 563c 8ba6 4d3d
000002b0: b70e a53d f2ca 1bbc 5a93 32bc 2187 cd39
000002c0: 8835 8fbc d53b ceba 06cb 6abd 88e8 aa3c
000002d0: a113 b53d 0f9f 4c3d f6c4 46bd b873 13be
000002e0: efff 05bd 7c0c 89bd 589f 893d c3c6 913d
000002f0: 928a 0b3d 1509 efbc 9e13 35bd f872 ccbd
00000300: c634 b23c 44e7 313d 7948 fd3c ea92 ff3c
00000310: 382e 0abd 59ee f43c 3cf8 113a 32c5 61bc
00000320: 085a 733d d1da 823d f74b 94bd 1548 9bbc
00000330: 0a00 ec3b b7d1 d33c 2c58 11bd b263 523d
00000340: e02d 4ebd a9f7 573c aef3 623d 6485 9f3d
00000350: 6297 253d adbd 833d 6a3a d23c 2c0e 98bd
00000360: 7dbd aa3d 90a6 b63d 5773 aebd 31cf 54bd
00000370: 4b50 9e3d 707f 8d3d 0839 8dbd 8ceb c63d
00000380: 4870 6ebd 9d8d 2ebd 7282 693d 9811 5b3d
00000390: e65a 503d db1b 663d 7cb5 ea3c d8e3 a4bd
000003a0: ef1b 5a3c 3d24 df3c 2022 17bc f2ef 2cbc
000003b0: 1dd2 7b3d 8bbe 223d aaf1 66bd deab 623d
000003c0: a8dd 3cbd 8c2a ff3d b44b 51bd d0c7 a1bd
000003d0: 5da4 7dba 01bc ec3c 8172 a0bd c2c3 c6bb
000003e0: e797 79bd adda 663d a765 983c 86ae 513d
000003f0: 07c4 993d f808 f5bb 871f 8e3d b2f2 5b3d

base_model.model.segformer.encoder.block.0.0.attention.self.value.lora_A.weight f4 [16, 64]
-0.040156487 0.16359977 0.093584925 -0.09366595 0.002581443 -0.038186166 -0.017247953 -0.050838616
0.094078384 -0.086915575 -0.07145471 0.03838524 -0.03028075 -0.088771254 0.0066850586 -0.11178674
0.08574491 -0.016794894 -0.04086347 0.0006966244 -0.0995757 0.111741126 0.030022914 0.054205403
0.06856344 0.097369574 0.008914022 -0.039471284 0.10409994 0.042071555 0.10181953 -0.041946083
0.05460643 -0.055105302 -0.07021067 0.13466972 -0.012291001 0.022836596 -0.042359654 -0.08240311
0.09458822 -0.07571052 0.056025907 0.11687283 0.033881076 0.034732014 -0.11521767 -0.073278084
-0.1838372 -0.07183833 0.13839728 -0.072771594 0.14079745 0.024473015 0.073242135 0.09269855
0.06915501 0.11054889 0.056420412 0.13733855 -0.11776119 -0.037430022 -0.042156946 -0.07685133
-0.112976424 0.03369409 -0.030690022 -0.04531875 -0.14915526 -0.09250717 -0.033337712 0.08673904
-0.0047739656 -0.05221792 -0.07189117 -0.009391294 -0.09321766 0.16263194 0.10120187 -0.07686302
-0.020929426 -0.09459 -0.10670553 0.082055055 -0.063937895 -0.13008513 0.12772886 0.05731832
-0.026365692 0.022065805 0.0077221547 -0.1058496 0.103753574 -0.0052999137 -0.116100006 -0.05648497
0.10608807 -0.07745356 0.03640767 -0.08993968 0.0066304905 0.0963497 -0.032313306 -0.119398154
0.037977055 0.07461929 -0.022717483 -0.031530153 0.06171616 0.094199605 -0.10156697 0.06404828
-0.02701784 -0.05134107 -0.049908523 0.06780105 -0.1008493 0.04207993 -0.033936836 -0.08073747
-0.0032347157 0.07095017 -0.124678835 0.11942794 -0.03525014 -0.104285374 0.04557425 -0.066438146
-0.064622834 0.19798057 0.03528291 -0.15454611 -0.10911645 -0.1075567 0.09969549 0.11255341
-0.005230151 -0.106425874 -0.13444756 0.026666867 -0.0099897785 0.0675308 -0.0032054782 -0.060240224
0.073869504 -0.053603765 -0.03481607 -0.00045387758 -0.04797313 0.022395601 -0.025866482 -0.10680849
-0.012737486 -0.027990896 -0.007580384 -0.10099204 0.09824279 -0.10259916 -0.010016609 -0.10383652
-0.109699786 -0.103411704 0.10331348 0.05035068 0.04308003 0.012517672 -0.019852221 0.057973042
0.10470819 0.027230341 -0.032241464 0.10989811 -0.02153461 0.048501164 -0.09772494 -0.017964665
-0.024145221 0.10858218 -0.037415616 -0.057686884 -0.037386794 0.12324672 0.08948204 -0.15393399
0.07645459 0.04787141 -0.15874946 -0.030042809 0.1735013 -0.11727505 0.02496117 0.084140375
0.013999186 0.13488305 -0.047263354 -0.074657604 -0.07594817 -0.021257605 -0.0340141 0.10480186
0.0790089 -0.0043036574 0.021541411 -0.083445705 0.1045655 0.023517001 0.06394405 -0.05899929
0.07504572 0.045699563 0.022646474 0.09970707 0.11029178 -0.10074169 -0.012338431 -0.04977842
-0.066201515 0.04460572 -0.0072904928 0.08088164 0.07639074 0.07432822 -0.06271838 -0.008444529
-0.059189588 -0.08673985 0.0750068 0.14720723 -0.11297068 -0.044868123 -0.08735918 -0.0699539
0.04403174 0.019336302 -0.011805908 0.031235373 -0.024255231 8.7784116e-05 -0.09116759 -0.012031973
0.0881621 0.10472201 -0.08277296 0.09269383 0.006268197 0.12139213 -0.043922137 -0.18823877
-0.11194777 0.04217784 0.028238624 0.024023773 0.073169574 0.116131864 0.10962631 0.11356005
00000000: 217b 24bd b386 273e 74a9 bf3d efd3 bfbd
00000010: 6d2d 293b 1969 1cbd 944b 8dbc 273c 50bd
00000020: 2bac c03d cb00 b2bd d956 92bd d739 1d3d
00000030: 560f f8bc b4cd b5bd 560e db3b 72f0 e4bd
00000040: 079b af3d 7295 89bc 7460 27bd ac9d 363a
00000050: 58ee cbbd 88d8 e43d 9df2 f53c 7c06 5e3d
00000060: fd6a 8c3d b369 c73d 1e0c 123c a4ac 21bd
00000070: 5932 d53d 3953 2c3d c286 d03d a8cf 2bbd
00000080: feaa 5f3d 19b6 61bd 9dca 8fbd dce6 093e
00000090: 3260 49bc d013 bb3c 5181 2dbd f6c2 a8bd
000000a0: 78b7 c13d 1e0e 9bbd 6c7b 653d 065b ef3d
000000b0: e2c6 0a3d 2843 0e3d 3ef7 ebbd d212 96bd
000000c0: d23f 3cbe f91f 93bd 04b8 0d3e 4609 95bd
000000d0: 352d 103e a27b c83c f9ff 953d bdd8 bd3d
000000e0: 24a1 8d3d 7567 e23d 1719 673d 7aa2 0c3e
000000f0: c72c f1bd 3950 19bd c3ac 2cbd 3b64 9dbd
00000100: 2f60 e7bd d002 0a3d a469 fbbc 27a0 39bd
00000110: 28bc 18be 6674 bdbd 208d 08bd 3da4 b13d
00000120: ed6e 9cbb 75e2 55bd ae3b 93bd f1dd 19bc
00000130: e7e8 bebd fd88 263e ed42 cf3d 5c6a 9dbd
00000140: 3074 abbc 67b8 c1bd 6e88 dabd 7b0c a83d
00000150: dff1 82bd 0935 05be 5bcb 023e 9dc6 6a3d
00000160: ddfc d7bc 59c3 b43c 210a fd3b adc7 d8bd
00000170: c17c d43d e6aa adbb d7c5 edbd c95c 67bd
00000180: b444 d93d f99f 9ebd 3520 153d 4c32 b8bd
00000190: 9644 d93b fe52 c53d f55a 04bd 0587 f4bd
000001a0: d48d 1b3d 00d2 983d 041a babc c325 01bd
000001b0: 16ca 7c3d b9eb c03d 5802 d0bd bf2b 833d
000001c0: 8454 ddbc 044b 52bd e16c 4cbd 47db 8a3d
000001d0: 148a cebd 015c 2c3d 5a01 0bbd b059 a5bd
000001e0: 86fd 53bb 534e 913d 9e57 ffbd a396 f43d
000001f0: 7362 10bd 9293 d5bd 11ac 3a3d b910 88bd
00000200: fa58 84bd 6bbb 4a3e d084 103d 5641 1ebe
00000210: 7278 dfbd b046 dcbd 262d cc3d 6782 e63d
00000220: b061 abbb cff5 d9bd 9fac 09be 7974 da3c
00000230: 2bac 23bc 974d 8a3d 0013 52bb 74be 76bd
00000240: e548 973d 9f8f 5bbd 4c9b 0ebd 6bf6 edb9
00000250: 797f 44bd fb76 b73c f2e5 d3bc 69be dabd
00000260: e3b0 50bc 2a4d e5bc df64 f8bb ead4 cebd
00000270: 8433 c93d 821f d2bd b41c 24bc 3ea8 d4bd
00000280: 48aa e0bd 84c9 d3bd 0596 d33d 843c 4e3d
00000290: af74 303d ec16 4d3c 20a1 a2bc 2475 6d3d
000002a0: 3f71 d63d 2a12 df3c a00f 04bd 4312 e13d
000002b0: 5a69 b0bc 28a9 463d 0324 c8bd a22a 93bc
000002c0: 33cc c5bc 5660 de3d 1e41 19bd 1549 6cbd
000002d0: e522 19bd c768 fc3d 5c42 b73d dfa0 1dbe
000002e0: 3994 9c3d d014 443d 388f 22be 561c f6bc
000002f0: 53aa 313e e72d f0bd 5e7b cc3c ca51 ac3d
00000300: d85c 653c c81e 0a3e 3897 41bd 16e6 98bd
00000310: b78a 9bbd 6e24 aebc 5e52 0bbd 5ca2 d63d
00000320: 6bcf a13d b205 8dbb 9d77 b03c 95e5 aabd
00000330: 7026 d63d baa6 c03c 19f5 823d 3da9 71bd
00000340: 92b1 993d 772f 3b3d 1985 b93c 3833 cc3d
00000350: a8e0 e13d a951 cebd 2127 4abc 75e4 4bbd
00000360: a994 87bd 7db4 363d 16e5 eebb 46a5 a53d
00000370: c072 9c3d 6539 983d 7e72 80bd ec5a 0abc
00000380: c870 72bd aaa4 b1bd 2a9d 993d 7ebd 163e
00000390: 2c5d e7bd a3c7 37bd 5fe9 b2bd fe43 8fbd
000003a0: a05a 343d 2a67 9e3c 916d 41bc 53e1 ff3c
000003b0: e8b2 c6bc bd18 b838 13b6 babd c121 45bc
000003c0: 558e b43d 7e78 d63d df84 a9bd 43d6 bd3d
000003d0: 7365 cd3b 709c f83d b3e7 33bd aac1 40be
000003e0: df44 e5bd acc2 2c3d b054 e73c 81cd c43c
000003f0: eed9 953d 8bd6 ed3d c283 e03d 2c92 e83d

base_model.model.segformer.encoder.block.0.0.attention.self.value.lora_B.weight f4 [64, 16]
0.013549213 -0.02340327 -0.022876704 -0.020376913 -0.0062987627 -0.021934139 -0.0023736402 -0.010883839
0.012845591 0.028514998 0.0069511915 -0.018767783 0.015393292 0.011865819 0.01325445 0.018791385
-0.0002628334 -0.013978192 -0.02775164 -0.0065139495 -0.016795684 -0.018772198 -0.016820334 -0.015140369
-0.021553917 0.0058914186 -0.032834753 0.0067857765 0.02372066 -0.012631634 0.0008675588 0.010248242
-0.004083549 0.014748579 0.0062648193 -0.005899214 -0.0067458143 -0.012094088 -0.023624986 -0.0010799787
0.0038009144 -0.02250868 -0.008424001 0.013529658 0.003560866 -0.0014475954 -0.007831668 -0.020196365
0.00016443843 -0.03568582 -0.038424797 -0.006861342 0.026098168 0.05671073 0.0401095 0.0071000075
-0.0146211395 0.0076496396 0.030399395 -0.015602369 -0.019143678 0.056831677 0.004368096 0.009962343
-0.008497375 -0.022320796 -0.011039225 0.0058587864 0.017303608 0.0036103462 0.026803773 0.012729188
0.021721505 0.025158368 -0.0012963458 -0.027698515 -0.019989716 0.010392463 0.024705099 0.012382064
0.009066952 0.002055335 -0.009872528 -0.004808913 -0.02856663 0.010357986 -0.038700644 -0.01899768
-0.027623395 0.015179577 -0.012348169 0.009768814 0.04974662 -0.06920849 -0.013642529 0.02361907
0.0023246326 0.007389974 -0.002845004 -0.00669209 0.0063523743 0.02419169 0.004716167 -0.003004064
0.0026815543 0.009568119 0.033029366 -0.012516388 -0.003242423 0.0071030757 0.002832223 -0.0060744523
-0.030063251 -0.011641163 -0.027974738 -0.019517418 -0.0045960983 0.033712246 0.031990465 -0.012764337
-0.0035797125 0.021685347 0.03045268 0.008381646 -0.008607657 -0.006774921 -0.009485581 0.0067069167
-0.005487864 0.023499526 -0.0023063822 -0.009995729 -0.009445407 0.005105169 -0.014944421 -0.009455435
-0.011093378 -0.027064044 0.0024518222 0.026059095 -0.0029116455 0.02369232 -0.0116915265 -0.02840437
-0.009502832 -0.007440771 0.0028752089 0.00071876205 0.004494081 -0.022913184 -0.025725594 0.0038707333
0.006868962 -0.017131103 -0.011686581 0.0115463305 0.003657713 -0.028848734 0.003994753 -0.038269598
0.00035727362 0.024619108 0.043001704 0.016977409 -0.0011762716 -0.013632327 -0.02966927 0.006531226
0.009139992 -0.035761528 -0.024038944 -0.0031368088 0.012288826 -0.038074695 0.0017622077 -0.018679347
-0.010215805 -0.01623878 -0.012741152 -0.036898226 -0.024069946 -0.035620023 -0.027170708 -0.0145371575
0.007207007 0.0013721401 0.0075923633 0.02242841 0.008192962 -0.037085515 -0.004298915 -0.016469503
0.0069124387 0.008488664 0.0152864335 0.0011682077 -0.0104052005 -0.052121967 -0.019215966 -0.0039600204
0.016670277 0.0065237693 -0.03284363 -0.007968013 0.014642287 -0.014185768 0.0123842815 0.013908823
0.08369348 0.007946748 0.024480972 0.025752187 -0.011843365 -0.04561899 -0.037904777 -0.017725416
-0.031825855 -0.030623045 -0.03261436 -0.015905859 0.05310559 -0.04833969 0.018221997 0.0073572933
-0.03511092 0.018027619 0.002962646 -0.031383455 -0.029945923 0.031880893 0.011396027 -0.017556876
-0.014025623 0.0021541389 0.030743597 0.031926434 0.0037498155 -0.004889083 -0.036324393 0.0076330598
0.042374883 0.014279476 0.0051943013 0.013758518 0.00045739432 0.0123621235 0.010002111 -0.02019247
-0.022588413 -0.0070312107 0.008486495 -0.009030698 0.033920232 0.003438957 -0.0042425203 0.023119424
00000000: 85fd 5d3c 37b8 bfbc ed67 bbbc 7ced a6bc
00000010: da65 cebb 39af b3bc 138f 1bbb 2152 32bc
00000020: 5076 523c 4998 e93c d2c6 e33b e5be 99bc
00000030: 2534 7c3c da68 423c 3129 593c 64f0 993c
00000040: e7cc 89b9 c904 65bc 6857 e3bc f872 d5bb
00000050: 1a97 89bc 27c8 99bc ccca 89bc 4f0f 78bc
00000060: d791 b0bc cd0c c13b bc7d 06bd 385b de3b
00000070: d451 c23c eaf4 4ebc e36c 633a 3ee8 273c
00000080: 4bcf 85bb 06a4 713c 1d49 cd3b 324e c1bb
00000090: fe0b ddbb 4826 46bc 3089 c1bc 128e 8dba
000000a0: c318 793b 2064 b8bc d204 0abc 80ab 5d3c
000000b0: 6b5d 693b 3ebd bdba 6550 00bc d972 a5bc
000000c0: 1b6d 2c39 4b2b 12bd 5263 1dbd 1cd5 e0bb
000000d0: d3cb d53c 8349 683d dc49 243d 2ea7 e83b
000000e0: 818d 6fbc d4a9 fa3b 2708 f93c 14a1 7fbc
000000f0: 34d3 9cbc 55c8 683d 3f22 8f3b 1839 233c
00000100: 9338 0bbc 1ada b6bc dedd 34bc 10fb bf3b
00000110: 4cc0 8d3c 8f9b 6c3b 9693 db3c 168e 503c
00000120: 4cf1 b13c ec18 ce3c 26ea a9ba ffe7 e2bc
00000130: 79c1 a3bc 2645 2a3c 5962 ca3c 24de 4a3c
00000140: 8e8d 143c cdb2 063b 62c0 21bc 1694 9dbb
00000150: 9104 eabc 8bb4 293c 9184 1ebd 06a1 9bbc
00000160: 754a e2bc c3b3 783c fa4f 4abc 600d 203c
00000170: 1dc3 4b3d 2ebd 8dbd ea84 5fbc c87c c13c
00000180: dd58 183b 9827 f23b 3f73 3abb 5249 dbbb
00000190: 9427 d03b a72d c63c 148a 9a3b d5df 44bb
000001a0: 04bd 2f3b 9ac3 1c3c cd49 073d 8911 4dbc
000001b0: d57e 54bb ebc0 e83b d19c 393b 330c c7bb
000001c0: 3547 f6bc 94ba 3ebc 472b e5bc fee2 9fbc
000001d0: de9a 96bb da15 0a3d 6f08 033d 8221 51bc
000001e0: 9c99 6abb 78a5 b13c e677 f93c 2c53 093c
000001f0: 2107 0dbc 2800 debb 6969 1bbc b2c5 db3b
00000200: 8ad3 b3bb 1482 c03c ac26 17bb 20c5 23bc
00000210: e9c0 1abc 4349 a73b 72d9 74bc f8ea 1abc
00000220: 00c1 35bc 6ab5 ddbc c0ae 203b e279 d53c
00000230: 4ed1 3ebb 6516 c23c d18d 3fbc 48b0 e8bc
00000240: c4b1 1bbc b6d1 f3bb 006e 3c3b 4e6b 3c3a
00000250: 1543 933b 6eb4 bbbc 7bbe d2bc 21ac 7d3b
00000260: 0815 e13b 8756 8cbc 1379 3fbc d22c 3d3c
00000270: 3eb6 6f3b 2e54 ecbc 6be6 823b 95c0 1cbd
00000280: 7450 bb39 03ae c93c 8e22 303d 3514 8b3c
00000290: 202d 9aba 205a 5fbc f80c f3bc e503 d63b
000002a0: e8bf 153c ae7a 12bd 52ed c4bc eb92 4dbb
000002b0: 1257 493c 36f4 1bbd e1f9 e63a 6e05 99bc
000002c0: 3160 27bc 3107 85bc 44c0 50bc 9822 17bd
000002d0: 562e c5bc 4de6 11bd 1b95 debc 422d 6ebc
000002e0: c228 ec3b 62d9 b33a 5cc9 f83b c9bb b73c
000002f0: c63b 063c fbe6 17bd eadd 8cbb 0deb 86bc
00000300: bd81 e23b 0a14 0b3c f373 7a3c 8c1e 993a
00000310: 937a 2abc d87d 55bd cd6a 9dbc 0fc3 81bb
00000320: 1b90 883c 58c5 d53b 0b87 06bd 458c 02bc
00000330: 34e6 6f3c 6c6b 68bc 71e7 4a3c d5e1 633c
00000340: 7d67 ab3d 1433 023c 528c c83c 40f6 d23c
00000350: ac0a 42bc fada 3abd 0a42 1bbd e434 91bc
00000360: d45b 02bd 2edd fabc a396 05bd 014d 82bc
00000370: 3f85 593d d7ff 45bd 4c46 953c 7315 f13b
00000380: 78d0 0fbd a8ae 933c f428 423b f08b 00bd
00000390: 2751 f5bc 8a95 023d 67b6 3a3c 70d3 8fbc
000003a0: bacb 65bc 742c 0d3b ffd9 fb3c 4bc5 023d
000003b0: 77bf 753b 9a34 a0bb e3c8 14bd bf1e fa3b
000003c0: 4991 2d3d 77f4 693c f534 aa3b 686b 613c
000003d0: 6dce ef39 818a 4a3c e5df 233c ae6a a5bc
000003e0: 560b b9bc 1266 e6bb f10a 0b3c 7ef5 13bc
000003f0: f1ef 0a3d 2060 613b d704 8bbb f264 bd3c

base_model.model.segformer.encoder.block.0.1.attention.self.query.lora_A.weight f4 [16, 64]
-0.05993464 -0.13306724 -0.0011543032 -0.13154511 0.0354318 0.069056936 0.0070874454 0.00110735
0.037157238 -0.14740665 -0.029391387 -0.00077301275 0.07978794 0.01849176 -0.03213314 -0.009170346
0.056529306 -0.17729247 -0.02337626 0.08395591 -0.08946323 0.13564382 -0.0003891645 -0.15442842
0.14530493 0.061324026 0.09811981 0.1955966 -0.10953965 -0.033124108 -0.066666886 -0.18590277
0.11307013 -0.014461838 0.13124707 0.054070126 0.06764108 -0.14436364 0.15565169 0.16784213
0.07876088 -0.04941399 -0.05088783 0.1922853 -0.030432424 -0.010491198 0.087935105 0.0045551294
0.061899338 -0.034616522 0.080730155 -0.040878985 -0.061627463 -0.00851917 0.04694657 -0.07510153
-0.035824854 0.057477064 -0.11176557 -0.039118584 -0.0011608658 -0.04600385 -0.070413925 0.08258443
-0.046250563 -0.09818984 -0.05730752 -0.12743314 0.033306062 -0.041408263 0.06449464 -0.14880212
-0.05502834 0.02334915 0.059167713 -0.031214327 -0.13857956 -0.095341146 -0.052928258 0.031551514
0.05975159 0.009256841 0.058117647 0.12547818 -0.09977551 0.07940335 0.009238125 -0.105505295
0.08386444 0.044851612 0.15163101 -0.043162245 0.083359495 0.08275553 -0.122974806 0.025527917
-0.0019272281 -0.018890664 0.047254723 -0.11801912 0.003396734 0.024941668 0.006908014 0.11584849
0.017534805 -0.09621184 -0.14172943 0.030197054 -0.121824466 -0.046360515 -0.020457635 -0.0816607
0.1124422 0.06567853 0.1583879 0.026448727 -0.06372084 0.0011107697 -0.10049018 -0.08510213
-0.062131077 -0.007462313 0.10007489 -0.13679193 0.048709452 -0.04286722 -0.118316345 -0.08759083
-0.036537055 0.060945187 -0.022559311 0.010977826 0.05600462 0.035934668 0.00384049 -0.09677921
-0.04503351 -8.872779e-05 0.12304798 0.052427903 -0.09624183 -0.13907936 -0.051174354 -0.0104535185
-0.060626127 -0.16028544 -0.081651755 -0.094105855 0.0808194 -0.029962534 0.118792094 -0.0652643
0.06787166 -0.13941394 0.15113449 0.13659944 -0.03980724 -0.0526501 0.1386101 -0.08527624
-0.06101696 -0.1357808 0.14483956 -0.08810026 -0.09457581 -0.026676826 -0.008215234 0.027831387
-0.1481034 -0.055919956 -0.10027887 0.0055134823 -0.03523497 -0.10766039 -0.010984759 -0.0212576
0.0033063414 -0.054976042 0.01740677 -0.06062275 0.051746406 -0.17131978 0.0008480996 0.07666033
-0.0014070589 0.09212524 0.011727768 -0.14165816 0.20459867 0.16814928 -0.14001647 0.0019398129
0.008687412 -0.08653 0.11917017 -6.421836e-05 0.035039563 0.10326642 0.13325532 0.010045857
0.07591886 0.013368943 0.13820755 0.042973362 -0.08218558 -0.01663183 0.010368171 0.10125947
-0.028700417 -0.119254306 0.050493225 0.088921644 0.10718309 0.16136493 -0.059764497 -0.033144366
0.06794965 0.06574407 0.08755704 -0.0318611 0.0899686 -0.11297894 -0.009646234 -0.080714196
0.05354514 0.01706988 0.0862061 -0.023918053 0.1218235 0.05306741 0.08323523 0.043198276
0.06863416 -0.2589871 -0.0844229 0.11627742 -0.06566732 -0.005241464 -0.10969057 -0.05357718
0.0956617 -0.11277353 0.12399065 0.021047294 0.021796307 -0.15168983 -0.016508669 0.028890543
-0.07659528 -0.1220931 0.014200908 0.00013808817 0.055162795 -0.07435708 0.061205678 -0.053103156
00000000: 067e 75bd c742 08be fd4b 97ba c3b3 06be
00000010: ef20 113d b96d 8d3d cd3d e83b 8024 913a
00000020: 3032 183d c5f1 16be 35c6 f0bc 02a4 4aba
00000030: dc67 a33d 087c 973c 0a9e 03bd 383f 16bc
00000040: 468b 673d 288c 35be 927f bfbc 13f1 ab3d
00000050: 7f38 b7bd 37e6 0a3e c608 ccb9 7c22 1ebe
00000060: d1ca 143e e72e 7b3d 0af3 c83d 7a4a 483e
00000070: 5356 e0bd 25ad 07bd a688 88bd 4c5d 3ebe
00000080: 5091 e73d 58f1 6cbc a265 063e a378 5d3d
00000090: 6887 8a3d 10d4 13be 2863 1f3e cfde 2b3e
000000a0: 624d a13d 5366 4abd c26f 50bd 70e6 443e
000000b0: 6b4d f9bc 46e3 2bbc 5217 b43d 3243 953b
000000c0: 298a 7d3d 0eca 0dbd da55 a53d b970 27bd
000000d0: 146d 7cbd fd93 0bbc 0c4b 403d d5ce 99bd
000000e0: 15bd 12bd 126d 6b3d 59e5 e4bd cf3a 20bd
000000f0: 3128 98ba 886e 3cbd 2d35 90bd 0722 a93d
00000100: 3b71 3dbd c117 c9bd 4abb 6abd d57d 02be
00000110: f06b 083d b69b 29bd c415 843d 955f 18be
00000120: 6665 61bd b746 bf3c d859 723d 30b5 ffbc
00000130: cde7 0dbe 3842 c3bd 4dcb 58bd 293c 013d
00000140: 15be 743d 01aa 173c c50c 6e3d 5a7d 003e
00000150: 1a57 ccbd 399e a23d 815b 173c 2913 d8bd
00000160: 1fc1 ab3d 53b6 373d 2945 1b3e e5ca 30bd
00000170: 62b8 aa3d bb7b a93d 37da fbbd ec1f d13c
00000180: 0b9b fcba 98c0 9abc 2b8e 413d 02b4 f1bd
00000190: bd9b 5e3b 7852 cc3c 9f5c e23b f941 ed3d
000001a0: 27a5 8f3c b70a c5bd 8521 11be d05f f73c
000001b0: 1b7f f9bd 86e4 3dbd c596 a7bc ba3d a7bd
000001c0: 1948 e63d 7782 863d 7030 223e 00ab d83c
000001d0: 1280 82bd 3f97 913a cccd cdbd 074a aebd
000001e0: 287d 7ebd 6b86 f4bb 10f4 cc3d 2f13 0cbe
000001f0: 9083 473d 8a95 2fbd d74f f2bd d262 b3bd
00000200: e1a7 15bd a9a1 793d 4ece b8bc 57dc 333c
00000210: 1a65 653d 3b30 133d bbb0 7b3b 2e34 c6bd
00000220: 0f75 38bd 5f13 bab8 9400 fc3d a4be 563d
00000230: 701a c5bd d26a 0ebe 339c 51bd 3c45 2bbc
00000240: 1a53 78bd de21 24be 0939 a7bd 92ba c0bd
00000250: a484 a53d fd73 f5bc 4549 f33d 4aa9 85bd
00000260: 4c00 8b3d 87c2 0ebe 00c3 1a3e b9e0 0b3e
00000270: eb0c 23bd a2a7 57bd ceef 0d3e 4fa5 aebd
00000280: ebec 79bd 1f0a 0bbe d250 143e e96d b4bd
00000290: f6b0 c1bd 5c89 dabc 3099 06bc a6fe e33c
000002a0: 6ba8 17be 530c 65bd 025f cdbd 71aa b43b
000002b0: 8b52 10bd 0d7d dcbd 6bf9 33bc 6b24 aebc
000002c0: 34af 583b 8f2e 61bd a498 8e3c 904f 78bd
000002d0: 0af4 533d 746e 2fbe 0053 5e3a 1700 9d3d
000002e0: 106d b8ba 28ac bc3d d325 403c d60e 11be
000002f0: 5082 513e 532f 2c3e 7a60 0fbe 5241 fe3a
00000300: a655 0e3c a436 b1bd 7d0f f43d f8ac 86b8
00000310: a585 0f3d 587d d33d 1574 083e 6197 243c
00000320: 597b 9b3d 6909 5b3c 4886 0d3e d604 303d
00000330: ea50 a8bd 7a3f 88bc 43df 293c 2061 cf3d
00000340: 231d ebbc 9a3b f4bd fcd1 4e3d 8d1c b63d
00000350: cf82 db3d d93c 253e 9ecb 74bd 63c2 07bd
00000360: 3029 8b3d d4a4 863d 1b51 b33d c980 02bd
00000370: 7541 b83d 8161 e7bd 3d0b 1ebc 7c4d a5bd
00000380: 2652 5b3d 22d6 8b3c d38c b03d cbef c3bc
00000390: 997e f93d 365d 593d 3b77 aa3d adf0 303d
000003a0: 1190 8c3d f599 84be eae5 acbd db22 ee3d
000003b0: 967c 86bd 96c0 abbb 73a5 e0bd bf73 5bbd
000003c0: 48ea c33d cff5 e6bd cfee fd3d 606b ac3c
000003d0: 2b8e b23c 9454 1bbe 303d 87bc dcab ec3c
000003e0: fcdd 9cbd f20b fabd edaa 683c c3cb 1039
000003f0: 62f2 613d 8648 98bd ceb2 7a3d b282 59bd

base_model.model.segformer.encoder.block.0.1.attention.self.query.lora_B.weight f4 [64, 16]
-0.09841207 -0.02064419 -0.03646776 -0.03312856 0.05295872 -0.0020629214 -0.057129115 0.050341956
0.041654576 0.022847913 0.064402215 0.0038747324 -0.017308727 -0.026686372 0.04858248 0.016721338
0.019196391 -0.0073033366 -0.06605364 0.0013647387 -0.20415969 0.03632679 0.022418095 -0.047298957
0.035193376 0.031142842 -0.022573149 -0.012191283 0.06797835 0.086766966 -0.014625137 0.040353835
0.02813634 -0.024878342 -0.027375834 -0.019918166 -0.044843018 0.008757515 0.0037542079 -0.07149481
0.049928788 0.011460805 0.050400693 -0.018427435 0.06313008 0.05488896 0.023848772 0.020986808
-0.037492037 -0.01370627 0.030148644 0.007362455 0.037016563 0.014104166 -0.024688361 0.06932473
-0.0016562691 -0.04868319 0.0061904965 -0.022094488 -0.06678405 -0.029450754 -0.016527524 -0.010588501
0.032120533 0.040209547 0.08176577 0.029957728 0.005096855 -0.0014381345 0.033425484 0.058162697
-0.054134384 -0.05796853 -0.0620722 0.016410548 -0.058666006 -0.049122307 -0.06663722 -0.031553097
0.08376994 -0.019405717 0.07006096 0.041212045 -0.08502676 -0.09332135 0.09259945 -0.13104995
-0.015401756 -0.033215694 -0.018952727 -0.014289942 0.052598488 -0.025430715 -0.07243714 0.023494627
-0.027573215 0.016145 -0.03918316 -0.0018163745 0.03892544 0.057963975 -0.07486491 0.024840964
-0.0084160855 0.021441158 -0.028561816 -0.014058545 -0.025771745 -0.0034193024 0.023685578 -0.013084448
0.009483393 -0.008753514 0.02926187 0.008322019 -0.025808983 -0.0352045 0.032186452 -0.0005447732
-0.026522107 -0.02387355 -0.007109935 -0.021064315 -0.015936673 -0.00089328125 -0.02542144 -0.002079525
-0.04696965 -0.025440332 -0.012627482 -0.04411447 -0.058861997 0.10308167 -0.05341536 -0.034938063
0.04301176 0.004752726 -0.04595433 -0.02112929 -0.014186353 0.051454864 0.033852972 -0.014839615
0.19225141 0.05178969 0.07068978 0.05399746 -0.07566472 -0.06448404 0.09483342 -0.10416682
-0.039030768 -0.058172952 -0.08412578 -0.008644988 0.044921283 -0.015631743 -0.10890686 -0.029423773
0.06952024 0.034509685 -0.06551371 -0.030075638 -0.14240313 -0.0172697 0.026798507 -0.12173592
0.07825209 0.08092252 0.08112358 0.057472166 0.15685219 0.05094137 0.021547096 0.027218554
0.06133285 0.0023639388 -0.03222022 -0.02091261 -0.036344737 -0.019468868 0.03926046 -0.044472948
0.0017589317 0.024256166 0.014211243 -0.0045088655 0.08801808 0.052990872 0.01719455 0.028973958
0.036967155 0.044227306 -0.028738808 -0.058678105 -0.127868 0.07140848 0.02450452 -0.108705975
-0.0020334134 0.053980924 -0.0023300461 0.06688412 0.12933274 0.02619879 -0.050551854 0.008803167
0.02167505 -0.01955218 0.047565766 -0.00583307 -0.04288432 -0.043895748 0.063227266 -0.047062006
0.010184348 -0.01263552 0.036462385 0.028200613 0.03298252 -0.014690166 -0.033326384 0.0146433525
0.07144229 0.04318157 0.023263872 0.03768383 0.023941249 0.013548484 0.004979717 0.04220697
-0.06005526 -0.040890165 -0.05958073 0.008498088 -0.048453804 -0.028732417 -0.043414272 -0.04413561
-0.010950279 -0.008650383 0.0164177 0.03729285 -0.06257196 -0.06955562 0.00629386 -0.015235741
0.007880162 -0.03266441 0.043874536 0.008546784 -0.0056677335 -0.013863975 0.009049843 0.019324142
00000000: 448c c9bd 011e a9bc 385f 15bd d0b1 07bd
00000010: 3eeb 583d 1432 07bb 3800 6abd 5e33 4e3d
00000020: fd9d 2a3d 8c2b bb3c 4fe5 833d 39ef 7d3b
00000030: 08cb 8dbc 619d dabc 6cfe 463d 30fb 883c
00000040: c041 9d3c d450 efbb 2147 87bd 08e1 b23a
00000050: 3d0f 51be 66cb 143d 27a6 b73c 8dbc 41bd
00000060: ee26 103d 461f ff3c 53eb b8bc f2bd 47bc
00000070: 3c38 8b3d e1b2 b13d 459e 6fbc 104a 253d
00000080: 2f7e e63c aacd cbbc 4943 e0bc 6c2b a3bc
00000090: 50ad 37bd ae7b 0f3c 2809 763b df6b 92bd
000000a0: 2182 4c3d 1ac6 3b3c f570 4e3d 22f5 96bc
000000b0: 584a 813d 3fd3 603d 805e c33c 87ec ab3c
000000c0: 4091 19bd 4390 60bc 4afa f63c c040 f13b
000000d0: ae9e 173d 2915 673c 3f3f cabc 20fa 8d3d
000000e0: 2b17 d9ba 0668 47bd a6d9 ca3b 80ff b4bc
000000f0: 13c6 88bd b542 f1bc bb64 87bc 647b 2dbc
00000100: d290 033d c4b2 243d d074 a73d e969 f53c
00000110: 8503 a73b c97f bcba 29e9 083d 023c 6e3d
00000120: 04bc 5dbd 6970 6dbd 6b3f 7ebd 6a6f 863c
00000130: c44b 70bd 7934 49bd 1879 88bd d23d 01bd
00000140: 938f ab3d bdf8 9ebc 1f7c 8f3d f6cd 283d
00000150: 8322 aebd 441f bfbd c8a4 bd3d f531 06be
00000160: a657 7cbc 2e0d 08bd c042 9bbc 5c20 6abc
00000170: 8371 573d 1354 d0bc ec59 94bd ce77 c03c
00000180: 39e1 e1bc 8542 843c 857e 20bd 6a13 eeba
00000190: 4870 1f3d a26b 6d3d c652 99bd 477f cb3c
000001a0: 9fe3 09bc 5ea5 af3c 78fa e9bc d055 66bc
000001b0: 441f d3bc 6016 60bb 4208 c23c 2760 56bc
000001c0: 3c60 1b3c e66a 0fbc 97b6 ef3c 1459 083c
000001d0: 5c6d d3bc 9832 10bd f1d5 033d 1ccf 0eba
000001e0: e444 d9bc 7792 c3bc 75fa e8bb 128f acbc
000001f0: a08d 82bc 172b 6aba a040 d0bc a448 08bb
00000200: 3f63 40bd 3e68 d0bc 80e3 4ebc 60b1 34bd
00000210: 4719 71bd 7c1c d33d 11ca 5abd 371b 0fbd
00000220: 192d 303d c1bc 9b3b 9c3a 3cbd 5517 adbc
00000230: e16d 68bc 56c2 523d 6aa9 0a3d db21 73bc
00000240: 8edd 443e 6d21 543d cec5 903d 712c 5d3d
00000250: 1bf6 9abd 3510 84bd 0638 c23d 6a55 d5bd
00000260: bade 1fbd c346 6ebd 234a acbd b5a3 0dbc
00000270: 61ff 373d 240e 80bc 8f0a dfbd 200a f1bc
00000280: a160 8e3d 075a 0d3d 0d2c 86bd 2f61 f6bc
00000290: 20d2 11be 3079 8dbc 8b88 db3c af50 f9bd
000002a0: a242 a03d b5ba a53d 1f24 a63d ef67 6b3d
000002b0: dc9d 203e e6a7 503d 8983 b03c 72f9 de3c
000002c0: 2838 7b3d 50ec 1a3b 59f9 03bd ec50 abbc
000002d0: 38de 14bd 2d7d 9fbc 93cf 203d 4429 36bd
000002e0: f48b e63a deb4 c63c 46d6 683c 1bbf 93bb
000002f0: d342 b43d f50c 593d 96db 8c3c cb5a ed3c
00000300: df6a 173d b127 353d a66d ebbc 7458 70bd
00000310: d4ef 02be 9c3e 923d b4bd c83c 3da1 debd
00000320: 0443 05bb 1a1b 5d3d b0b3 18bb 8bfa 883d
00000330: cd6f 043e d89e d63c 760f 4fbd 293b 103c
00000340: e08f b13c e52b a0bc 52d4 423d 5623 bfbb
00000350: 78a7 2fbd 07cc 33bd 4c7d 813d 17c4 40bd
00000360: 40dc 263c 3605 4fbc 9559 153d f904 e73c
00000370: ae18 073d 06af 70bc 3f81 08bd acea 6f3c
00000380: 5650 923d 28df 303d e093 be3c 5c5a 1a3d
00000390: 7020 c43c 76fa 5d3c e52c a33b 37e1 2c3d
000003a0: 81fc 75bd 727c 27bd ec0a 74bd 913b 0b3c
000003b0: 7f77 46bd 3f60 ebbc 2ad3 31bd 8bc7 34bd
000003c0: cd68 33bc 56ba 0dbc 6a7e 863c 63c0 183d
000003d0: ba25 80bd 2d73 8ebd b93c ce3b 549f 79bc
000003e0: cc1b 013c 1ecb 05bd c9b5 333d cf07 0c3c
000003f0: 65b8 b9bb ba25 63bc cb45 143c aa4d 9e3c
