segformer_model_lora_adapter_b0/adapter_model.safetensors (safetensors, 270084 bytes, 34 tensors)

base_model.model.decode_head.classifier.bias f4 [3]
00000000: 351c 963c fecc 1dbd 6c89 c83b
0.018323997 -0.038525574 0.0061198976

base_model.model.decode_head.classifier.weight f4 [3, 256, 1, 1]
00000000: 01e2 95bd 95d5 d6bc b7ed 8f3d 8c14 543d
00000010: 9e5d c9bd 825c 42bd 7889 b23a d967 87bc
00000020: 6397 6b3d a84a 8e3d c709 3dbd 895b 023d
00000030: 18e6 533d 3ae5 a53d 9147 8d3d fc78 a73d
00000040: ee3a 413d 822f 1e3c ca0e 943d 6b0e 983d
00000050: d10d e1bd e7b3 183d 407a fe3c 2e22 043e
00000060: 9447 7c3d 9248 52bd 4165 383d a332 a53d
00000070: 577b c03c 48ea 263d d414 86bd 40c5 2d3d
00000080: 3917 153d 6936 8ebd 6694 c33c 012b 8a3d
00000090: bb2e e23b de66 7b3d 3d4e 3b3d e0ba ea3c
000000a0: 3a11 93bd 7f4c 8d3d 67c8 8b3d 2052 1f3d
000000b0: 1ba9 b3bd 6c01 69bd 7dfa a83d af83 4d3d
000000c0: 4452 35bd 3d3f 703d 403b 1e3d aea4 d23d
000000d0: 71d7 3a3c 36af 753d 6a88 e23c ecd0 593d
000000e0: aa4d 68bc 6b54 8f3d f936 3ebd ae86 01bc
000000f0: f313 b2bd 0c70 eabd 5a60 e33c 12cb 903d
00000100: 7673 28bd d1d0 94bd 8d9a df3d f211 a6bc
00000110: 6faf a0bd fd4f edbd 1bba d4bd a749 2f3d
00000120: 09bd 30bd 6beb a9bd 8efe d4bd 3863 913d
00000130: c6e0 153d c66d 7abd f63f a23d fdee b13d
00000140: 4cd4 4c3d 9b9d 4dbd fe28 953d 8088 a33d
00000150: 743d 04bd 7682 a1bd 176f 8c3d ee90 49bd
00000160: 5cfc a8bd 1fdb ab3d a696 5f3c b4be 983d
00000170: 779a 4fbd 8472 7bbb 3d78 213d f726 603d
00000180: 22c2 bbbc 3807 3b3d 2ef3 583d cb60 f03c
00000190: edf6 c8bd 4911 893d 4511 313c dc8d 44bd
000001a0: bb78 c03d 6828 553c 7607 de3c f7d0 a23b
000001b0: 6e7f 873d 6bbe 93bd 4dc1 a8bd bc89 9dbd
000001c0: 903d df3c 5a65 523d b497 1cbd 7262 1c3d
000001d0: 7789 c8bb 11fd 45bd b6d2 ea3d bfa1 e4bd
000001e0: 7a5c bb3d 67a4 86bd 3c5c d4bc 4ae1 033e
000001f0: b3f9 623d 182d eabc 2f00 823d dd4c 87bd
00000200: 6369 413c 2231 49bd d3fa 8e3d 30b0 88bd
00000210: 144e e5bc 9efd 9f3d a150 bbbd 14c9 97bc
00000220: d5fa 633d d6da 5abd 6d00 153b 7cf2 51bd
00000230: 8cfd cfbd 1509 f43c d8b1 99bd 7766 843d
00000240: 1314 d5bd dd2c 4dbd 9652 06bd 7cbe 393d
00000250: d419 1c3d 81c1 bfbb 9a59 ef3c c484 2d3d
00000260: a033 b53d 7197 863d df9f a13d 5c89 a73d
00000270: 8691 3c3d 3500 76bd e01a 8bbd bd99 5abd
00000280: 8b33 603d 3b41 9ebd dcc2 1abc b470 b6bb
00000290: de7c 883d 4d86 903d 7217 813d e2c2 83bd
000002a0: 4ac9 1abd ac4d 393d e981 c13d 4664 923d
000002b0: 49e1 b33d 424a 063d 00f5 c13d 829f 923d
000002c0: e343 153d 3ebb cfbc 6813 d4bc 7d04 06bd
000002d0: 89b5 c73c 32a2 893d 6d24 62bd 631e 843d
000002e0: 6bc3 ce3c 10b7 6f3d 10cc 443d cf5e 503d
000002f0: 1ef8 113e f336 89bc 18d2 15bd 1176 273d
00000300: cc10 e7bd f8aa ba3d 0102 b73d adb7 4a3c
00000310: 4168 9abd 8151 a83c 53b8 09bd 1693 943d
00000320: ea3b 09be 3950 d2bd 4de4 54bd 635b 95bd
00000330: 517b 38bb 7e5a c2bd addb b6bc a572 823d
00000340: 10c1 a1bd 85a8 6cbd b4a6 9f3d 53bb 153d
00000350: b34c 273c 04eb 75bd cbe4 663d 280a b03c
00000360: a9f6 a33d d95d 253d 9b00 363d 9530 4fbd
00000370: 1e60 f73c 5b09 ac3d 9ffb dbbc c80f 27bb
00000380: bc48 be3d 5201 9bbd b4df 493d 9144 533d
00000390: 72d9 19bd b8fa 043d 0121 81bc e83c 603d
000003a0: f1f2 38bd 98e3 d9bc 2bc4 a33d fca6 11bd
000003b0: dca9 dd3c 3d75 ccbd 54c3 a9bd c9e4 133d
000003c0: fea0 e13c 1a04 5c3d d1c4 aabd 64b2 b3bd
000003d0: 48ae dfbd 573c 523d cde7 ff3c f2b3 9abd
000003e0: 4d16 a13d b4ab 7fbd 482a b13d 04d8 a43d
000003f0: 5caf 83bd 511a 83bd 4716 a6bd ed7e e93d
-0.073184974 -0.02622489 0.070277624 0.051777408 -0.09832309 -0.047451504 0.0013621291 -0.01652901
0.05751742 0.06947833 -0.046151903 0.031825576 0.051733106 0.08100362 0.06898416 0.08177373
0.04717534 0.009654881 0.07229383 0.07424625 -0.109889634 0.037280943 0.031064153 0.12903664
0.0615917 -0.05133874 0.04501844 0.08066299 0.023496313 0.04075077 -0.065469414 0.04242444
0.0363991 -0.06943972 0.023874473 0.067464836 0.0069025434 0.0613774 0.04572891 0.028653562
-0.0718102 0.06899356 0.06825333 0.03889668 -0.08772489 -0.05688612 0.08250902 0.05017441
-0.044267908 0.05865406 0.038630724 0.102853164 0.011403904 0.059981547 0.027652938 0.05317776
-0.014178673 0.06998523 -0.046439145 -0.007905645 -0.08695211 -0.114471525 0.027755905 0.070699826
-0.041125737 -0.07266391 0.1091815 -0.020272229 -0.07845961 -0.11587522 -0.10387059 0.04279485
-0.043149028 -0.082968555 -0.10400115 0.070990026 0.036591314 -0.061139844 0.07922356 0.086881615
0.05000715 -0.050199132 0.07283209 0.0798502 -0.03228517 -0.078862116 0.06857126 -0.04921048
-0.08251259 0.083914034 0.013646757 0.07458249 -0.05068442 -0.0038367817 0.03942131 0.05472466
-0.022919718 0.04566118 0.05296629 0.02934303 -0.09812722 0.0669275 0.01080734 -0.04798685
0.093980275 0.013010122 0.027103167 0.004968758 0.06616102 -0.07214054 -0.08239994 -0.07692286
0.027251035 0.051366188 -0.038230613 0.038179822 -0.0061199027 -0.048337046 0.11465971 -0.11163663
0.09148498 -0.06574326 -0.025922887 0.1287891 0.055413913 -0.028585956 0.06347691 -0.066064574
0.011804911 -0.049119122 0.06981435 -0.0667423 -0.027991332 0.078120455 -0.09146238 -0.018528499
0.055659134 -0.053431354 0.002273585 -0.05125664 -0.10155782 0.029789487 -0.07504624 0.06464856
-0.104042195 -0.050091613 -0.032793604 0.045347676 0.03811057 -0.005851925 0.02921753 0.042362943
0.08847737 0.06571854 0.07891821 0.08180496 0.04603722 -0.06005879 -0.067922354 -0.053369273
0.054736655 -0.077272855 -0.009445872 -0.0055676345 0.066644415 0.07056866 0.063033 -0.06433655
-0.03778962 0.04524009 0.094486065 0.07148032 0.08783204 0.03278566 0.09470558 0.0715933
0.036441695 -0.025357839 -0.02588816 -0.032719124 0.024378555 0.067203894 -0.05521052 0.06451108
0.025239667 0.05852419 0.04804617 0.050871667 0.14254805 -0.016749835 -0.036577314 0.04088408
-0.112825006 0.09114641 0.08935929 0.012372893 -0.07539416 0.020546677 -0.03362305 0.07254617
-0.13401762 -0.102692075 -0.051975537 -0.07292821 -0.0028149674 -0.09489916 -0.022321546 0.06369523
-0.07898152 -0.0577779 0.07795468 0.0365556 0.010211158 -0.06003858 0.056370538 0.021489218
0.08006031 0.040372703 0.04443417 -0.05058344 0.0301972 0.08400222 -0.02685338 -0.0025491584
0.09291217 -0.07568611 0.049285606 0.051579062 -0.037560888 0.032465667 -0.015762808 0.054745585
-0.045153562 -0.026597783 0.079964004 -0.03555964 0.027058534 -0.09983299 -0.08289209 0.03610686
0.027542587 0.05371485 -0.08338321 -0.0877426 -0.109219134 0.051327076 0.03123846 -0.07553853
0.07865582 -0.06241961 0.08650643 0.08049014 -0.064299315 -0.06401504 -0.08109718 0.11401162

base_model.model.segformer.encoder.block.0.0.attention.self.query.lora_A.weight f4 [16, 32]
00000000: d0a7 493d 0824 243c 6f12 aa3d 680a 783d
00000010: e11d f6bd 26de 063b e3bb 37be 0b5c 17bc
00000020: 1fef 00bd 05f9 0cbe a4ff a33d 0367 69bd
00000030: fad1 55bc f513 b43c 0deb d13d 24fd fe3d
00000040: 78ca bb3d 885f fb3d 7a5f bf3b 4f65 99bd
00000050: 8602 92bd 43dd 003e 4219 82be f467 44be
00000060: 7606 2cbc 3890 a03d c8f7 523d 3ee2 2f3e
00000070: 9b1a e1bc d1ac 1d3d bde5 d53d bf9f 493e
00000080: bc9a 873c 43be 1cbe 8846 943d e6b5 f0bd
00000090: a866 593d 97bd 193d 5cb6 4b3e 81f0 ffbc
000000a0: 0222 13bd 5ebd 76bd 28b2 ff3d fe9c 533e
000000b0: 16d3 e9bd fbfd 02be f84c 9ebe 123d fc3d
000000c0: c90a ccbd 2035 253e 3e55 47be 46d8 963d
000000d0: ab9c 40be e0d3 4dbe 264e 7c3d 2523 483d
000000e0: 2230 30bc aafb 83be e233 3abe c375 563e
000000f0: 56b2 70be 80c8 2b3d 4b1b f3bd 3606 00bd
00000100: 1ea9 57bd 2f6b 1a3e a3ba 1a36 c28e 3cbd
00000110: 8791 433d cebd d9bc 4b01 03be 9750 e53c
00000120: 7c3f 22be acf8 80bd 80a1 9a3d ef6d a73d
00000130: 4f44 ff3d d2c9 c83c 931e 983c bfec a8bd
00000140: e3f5 6e3d c761 59bc b4a1 a93b be0d 8d3d
00000150: d94a f9bd f2ba 093e 2584 bf3b 51fd 373e
00000160: a568 d2bd 5440 aa3d 49af fd3c 8ed7 de3d
00000170: 7262 1abe 5140 48be e22a 493d 6566 033c
00000180: 3670 213e a6ed 85bd e11b 743d d657 273e
00000190: 8599 323e 5b0e 08be 01b6 d03d 81fc 22bc
000001a0: 43af fbbc 1b9f e8bd 92b1 4fbd 5382 10be
000001b0: 7163 453e d55d 18be fac3 4a3b b305 c43d
000001c0: f1b3 6bbe 56c7 b4bb a911 d43d 5462 ba3d
000001d0: d4aa 7abd 20b6 ed3d 4cb2 5a3e df30 133c
000001e0: bc8d 24bd 9c14 423e dc0f f23d 289d 583d
000001f0: 403f b43d d95e 343d a90e adbd e9fe 29be
00000200: 7821 a93d 59c6 413e b5c9 81bc d3e2 1f3e
00000210: e06b ae3d 813c 15bc 11b0 79bc ac6c 9a3d
00000220: 27a2 f1bd 8694 e639 2f4f 0ebc 5db1 35bd
00000230: 8249 053e 8fda 2c3e fafe f53d d87b 9cbd
00000240: c96d ff3d 819d 853c ab96 e33d d385 c9bd
00000250: 2520 dbbd 7ddc cc3d 8796 343d c0db a23d
00000260: 8359 18be e16f 2e3e a6e4 e1bc cdee 22be
00000270: ac20 91bc 0c39 76be 4006 21be 178f b43d
00000280: a546 f3bd e221 243e c3e4 79bc c8bc a6bc
00000290: 0d20 a53d 1b37 b5bd 4945 c83d 917f 15be
000002a0: 691f d0bc b723 603d 6c4e 073d 7488 3f3d
000002b0: 1605 e53c 1d14 7a3e 27c2 893c f400 47be
000002c0: 55cf f2bb 87c7 31bd e9d6 203e bd2e 0bbe
000002d0: 266f 1b3e eeae 1d3e 5b80 8dbe 2ff7 b7bd
000002e0: f74b 47be e3c5 58bc 2cad 1e3e ae6a 793d
000002f0: 7538 203e 40a5 3c3e 20c2 26be d789 3c3d
00000300: 0a9d 2e3e 71de 2e3e a724 bfbd 04a9 663d
00000310: e590 953c 35fb 1dbd b942 7d3d 2d31 333d
00000320: 053d a33d aea4 2c3e 0aed ea3d 8bc1 4d3d
00000330: 9b85 c9bc 2ebd f1bd 60ed 3d3e 358a b13d
00000340: 8fb2 c93d f459 38bd b26b 6abe 054f 213e
00000350: 365e 2e3e 2952 8a3d bfc3 f8bd 8f52 54bd
00000360: 5b5f 5abe cc3f 7c3e 7a36 3f3e adbf 82be
00000370: c93f e4bc 81c3 f3bd 9c7c 403e 2d1e 29be
00000380: 9d55 debc 0d5a 0b3d 60bb 063d 6e9f 953d
00000390: 6e53 2b3e d83c 9d3d 7137 b7bd 1c11 e2bd
000003a0: e5bc ecbd 7a97 7cbd 3aa8 643e 3fdd 23bd
000003b0: a6a3 273e f4f5 19be cc99 a43d 1979 123e
000003c0: 5ee1 d7bd 017c 44bd d8f8 57be 96b2 cf3c
000003d0: 1c29 ffbd 7a64 74bd 8ccd 1a3e 870b 26bd
000003e0: b02c 393d 97d3 333e 1fb7 963d 743d c0bd
000003f0: 9840 babd cba2 6ebe af46 853c 13d7 35be
0.049232304 0.010018356 0.08304297 0.0605568 -0.12017418 0.0020579188 -0.17942767 -0.009238253
-0.031478044 -0.13766868 0.08007744 -0.056983005 -0.013050551 0.021982173 0.102499105 0.124506265
0.09169477 0.122740805 0.005840239 -0.07490026 -0.071293876 0.12584405 -0.25409895 -0.1918028
-0.010499587 0.078400075 0.051505834 0.17176148 -0.027478507 0.03849489 0.1044421 0.19689845
0.016553275 -0.15306954 0.07240015 -0.117534444 0.053076416 0.037534323 0.19893783 -0.03124261
-0.035921104 -0.06023919 0.124851525 0.20665357 -0.114172146 -0.12792198 -0.30918097 0.12316336
-0.099629946 0.16133547 -0.19466111 0.0736547 -0.18809764 -0.20100355 0.061597966 0.04886164
-0.010753663 -0.25777942 -0.18183854 0.2094336 -0.2350553 0.04193926 -0.1187044 -0.031255923
-0.052651517 0.1507995 2.3056425e-06 -0.046034582 0.047746208 -0.026579764 -0.12793462 0.02799253
-0.1584453 -0.062974304 0.07550335 0.08175265 0.12464201 0.024510298 0.018569266 -0.08248281
0.058339965 -0.013267941 0.005176747 0.06887387 -0.12172479 0.1345022 0.0058446103 0.17967726
-0.102738656 0.08313051 0.030967372 0.108809575 -0.15076616 -0.19555785 0.04911316 0.008020018
0.15765461 -0.065394685 0.0595969 0.163421 0.17441376 -0.13286726 0.101909645 -0.009947897
-0.03072322 -0.11358472 -0.050706454 -0.14112215 0.19276215 -0.14879544 0.0030939565 0.095713995
-0.23017861 -0.0055169268 0.10354931 0.09100786 -0.06119807 0.11607003 0.21357077 0.00898382
-0.04017423 0.18953174 0.11819431 0.05288425 0.088011265 0.044035766 -0.08450062 -0.16601147
0.08258337 0.1892332 -0.015843252 0.1561387 0.08516669 -0.009108664 -0.015239731 0.07540259
-0.11798506 0.00043979677 -0.008685871 -0.0443586 0.13016322 0.16880248 0.120115235 -0.07640809
0.12472112 0.016310455 0.11112722 -0.09839978 -0.106994905 0.10002992 0.044088867 0.0795207
-0.14877896 0.17034866 -0.027574848 -0.15911408 -0.017715774 -0.24045199 -0.1572504 0.08816355
-0.11878709 0.1602855 -0.015252295 -0.02035369 0.08062754 -0.08848401 0.0977884 -0.14599444
-0.025405603 0.05472156 0.033033773 0.04676099 0.027956527 0.24421735 0.016816212 -0.19433957
-0.00740997 -0.043403175 0.15706982 -0.13592048 0.15179119 0.15398762 -0.2763699 -0.089826934
-0.19462572 -0.013230774 0.15495747 0.060892753 0.15646537 0.18422413 -0.1628499 0.04602989
0.17052093 0.17077042 -0.09333163 0.05631353 0.018257568 -0.038569648 0.06183121 0.04374807
0.07970623 0.16859695 0.11470993 0.050233405 -0.02459984 -0.11803661 0.18547583 0.08668939
0.098485105 -0.04500766 -0.22892645 0.157528 0.17028126 0.06753952 -0.121467106 -0.051836547
-0.21325438 0.24633712 0.18673125 -0.25536862 -0.027862446 -0.11902524 0.18797535 -0.16515417
-0.027140433 0.034021426 0.03289354 0.073057994 0.16731045 0.07677621 -0.089461215 -0.110384196
-0.11559466 -0.061667897 0.22329798 -0.04000592 0.1637102 -0.1503523 0.08037147 0.14304008
-0.10541032 -0.04796982 -0.2109102 0.025353711 -0.12459013 -0.059666134 0.15117472 -0.040538337
0.045208633 0.17561184 0.07359146 -0.09386721 -0.090943515 -0.23304288 0.016269056 -0.17757826

base_model.model.segformer.encoder.block.0.0.attention.self.query.lora_B.weight f4 [32, 16]
00000000: cb5c 993d 874c e5bd d9d0 a6bd cd65 733d
00000010: 085b 4abc 91d4 8b3d 7335 303e ece8 8f3c
00000020: 274f f5bc f86c 373d f2ff e2bd 0ee5 9bbd
00000030: a381 78bd 9a1f f23c ae5a 41bd 5c54 64bc
00000040: 4f25 923b 1531 0bbe 0ccf 0e3d d22e edbc
00000050: 8397 983d 7ce1 093e 1ad5 af3d bda4 73bd
00000060: 9a0d 63bb 11a8 423d 7306 78bc 9b0e df3a
00000070: 4e11 f1bd 4220 8a3d 73d9 873c aa33 9cbd
00000080: 4aaa 633c ab84 f83d a4c4 21bd 8fc2 65be
00000090: 1073 d3bd e9db 9c3d f480 27bd 84b8 24be
000000a0: 2c3a 62be 33ab 67be 4f8b adbd 0641 553e
000000b0: 0d73 0ebc bd11 e83d 8ffd 6bbd 869b 9dbd
000000c0: 8973 37bd c46b ccbd e4ad 4f3d 2c93 113d
000000d0: b667 d33d c082 bb3d 3c45 353e 0cdb 9aba
000000e0: 97c9 37bd 2c7b c33c d0a3 1b3d ce57 883d
000000f0: d155 40be df43 f43d 7239 e63d 5c25 d9bd
00000100: 6c5f 1ebb 67ff ffbc 2191 2a3d bab3 ce3c
00000110: 03e2 4b3d 31be 02bc 5c16 91bd bb55 5ebc
00000120: 218a 66bd 40cb e9bd e501 31bc 9583 4dbc
00000130: 0c74 82bd 0028 463d f8f9 59bd de7c ecbd
00000140: 47bc 0d3d 1ea4 b0bd c524 ec3b eab2 c03d
00000150: dc64 003d 2f12 0e3c 3d30 323d 85e4 633a
00000160: 6f3f 3bbd e146 433d a813 10bc f6ff 0ebc
00000170: 1fa9 bcbd d697 9d3d 17b7 2e3c 10e5 92bd
00000180: f8e9 2e3d 9128 5abd e355 c1bc ba62 2cbb
00000190: f7ef 073b 912e 253d fb8d 9bbc e706 38bd
000001a0: b3dd 37bd 3bd4 7c3a 21b6 42bd a4f1 1fbc
000001b0: 7a82 ccbc 8bdf 963b 1dcd 86bd ccf3 83bc
000001c0: 8abb 45bb dc18 d0bd 3088 813d c191 0c3e
000001d0: 8f71 c93d 18c3 113d 9299 af3d 096f e93d
000001e0: 3a40 da3d bd6b 473e 480f 9c3d 2e5f 08be
000001f0: cebc cfbd eea6 a23c 4f43 ad3d 40c8 95bc
00000200: 78df 97ba 052a 0d3c 30aa 75bc 1f75 7a3d
00000210: aaaf 35bc c1d5 4bbd f47c 6bbd b2a9 df3c
00000220: 57f3 c93c d571 31bd 8b95 26bc 231e ee3b
00000230: 603d 863d df7c 98bd 0708 87bd f950 373d
00000240: d795 8f3c 413d ebbc cb69 7ebb 5fee 60bd
00000250: 4898 56bb dc5d 573d 5595 e93a 8071 b2bd
00000260: d395 b4bd 399f 35bd 02f7 8ebd ca0c 4d3d
00000270: c536 8fbc 1d32 1c3d 98d8 e8bc 1af7 d6bc
00000280: 58e7 d1bd d444 8d3d f5d0 e33c 83e7 803b
00000290: 443b 1dbc 227f 27bd 46c0 113d 5381 88bc
000002a0: 3203 86bd cbe3 c3bd 0cf9 0c3c 4dfe d63d
000002b0: e5ec a03c a177 0a3d cce0 933d 5782 d2bb
000002c0: 7cab 47bd 920c 163d dc2d b93c 83be 28bd
000002d0: 8cb6 03bc 1096 f93a 6b9e acbc b8aa 47bd
000002e0: 1736 73bc 254b 8abd 5aa1 96bb 6ad0 9e3d
000002f0: fddf 533d 8b8d e7bc 7baa b5bb ffa6 8c3c
00000300: 8b43 9abd fb82 233e 52e9 52bd 1cf1 6dbb
00000310: c73f e0bd 0df1 eabd 8284 ad3c 8dac a43c
00000320: fd0c c4bd 4a8e debd 5902 dfbc 0bd1 1b3d
00000330: 0dee 8b3d 4705 043c a19e 623d 1b10 0e3d
00000340: 5764 78bc 467b 8f3c d7df e43c 67a6 403c
00000350: 524c 663c 55e3 b1bc 8d27 a63c bc5b 383d
00000360: a217 283d d5bd 063d da6e 5b3d 0f7b 84bb
00000370: 1ba9 f7bb 9046 1a3c a5df 613d 1c74 be3a
00000380: 07d9 a23c 69db 14bd 754f 953c 7a5f 5c3c
00000390: b71e 023d 9c03 763c 9d5d 37bd 3f16 3e3b
000003a0: 94a5 653d 9ccb 60bc f22b da3c 60bf fdbb
000003b0: 0918 c13c 39f8 99bd 9395 84bd 9cdf c33c
000003c0: 88e0 333d fc94 debc 818d 8e3c 0f27 833d
000003d0: 4765 bf3c e18b 60bd 52fe 89bd f6ac cd3d
000003e0: aa4b 173e 0a3c bc3d 435d 5d3d 5b58 fbbd
000003f0: 4bf1 773d b5a7 02be 2bcf 80bd 58d3 7d3d
0.07488402 -0.11196237 -0.08145303 0.059423257 -0.012350805 0.06827653 0.1720789 0.01756712
-0.02994497 0.044781655 -0.11083974 -0.07612048 -0.060670506 0.029556084 -0.04720562 -0.0139361285
0.004460014 -0.13592942 0.034865424 -0.02895299 0.074507736 0.13464922 0.08585568 -0.05948328
-0.0034645558 0.047523562 -0.015138256 0.0017017903 -0.11770879 0.06744434 0.01658318 -0.07627042
0.013895581 0.121346794 -0.03949417 -0.224375 -0.10324681 0.07659132 -0.040894464 -0.16086012
-0.22092503 -0.22623901 -0.08473837 0.20825586 -0.008694422 0.11331508 -0.05761486 -0.07695679
-0.044787917 -0.09981492 0.050702944 0.035540745 0.10322516 0.09155798 0.17702192 -0.0011814549
-0.044869985 0.023862444 0.03799802 0.066573724 -0.18782736 0.11927008 0.112414256 -0.10602829
-0.0024165763 -0.031249715 0.041642312 0.025232185 0.04977609 -0.0079799155 -0.07084343 -0.013570244
-0.056284074 -0.1141572 -0.010803674 -0.012543579 -0.063697904 0.04837799 -0.053216904 -0.11547254
0.034603383 -0.08625053 0.0072065317 0.09409125 0.031346187 0.0086713275 0.043503035 0.0008693415
-0.045714792 0.047675017 -0.008793749 -0.008728018 -0.09211945 0.07694976 0.010663769 -0.071725965
0.0427036 -0.053261343 -0.023600524 -0.0026303963 0.0020742395 0.040327612 -0.0189886 -0.044928458
-0.044889163 0.0009644662 -0.047536973 -0.009762201 -0.02496456 0.004604285 -0.06582091 -0.016107462
-0.0030171596 -0.101609915 0.06324804 0.13727476 0.09836113 0.035586447 0.08574213 0.113981314
0.106567815 0.19474693 0.07620102 -0.13317558 -0.101434335 0.019854989 0.08460104 -0.018283963
-0.0011586985 0.008615975 -0.014994189 0.06114685 -0.011089245 -0.0497644 -0.05749221 0.027302597
0.024652166 -0.04332145 -0.01016749 0.007266776 0.06554675 -0.07445692 -0.06593328 0.044754956
0.017527504 -0.028715732 -0.0038820382 -0.05491483 -0.0032744575 0.052579746 0.0017820994 -0.08713055
-0.08817639 -0.0443413 -0.06980707 0.050061025 -0.01748217 0.03813373 -0.028423592 -0.026240874
-0.102492034 0.068978935 0.0278096 0.0039338483 -0.00959665 -0.040892728 0.035583757 -0.01666323
-0.06543578 -0.095649324 0.008604299 0.10497723 0.01964421 0.033805493 0.07220611 -0.006424229
-0.048747525 0.03663308 0.022604875 -0.04119731 -0.008039128 0.0019041914 -0.021071633 -0.048746794
-0.014844439 -0.06752614 -0.0045968713 0.077545956 0.051727284 -0.028265735 -0.0055440045 0.017169474
-0.07532414 0.15967934 -0.051492043 -0.0036307042 -0.109496646 -0.11471758 0.021181349 0.02010181
-0.0957279 -0.10866983 -0.0272228 0.038041156 0.06832514 0.008057899 0.05532706 0.034683328
-0.015160642 0.017514836 0.027938766 0.011758423 0.014056282 -0.021714846 0.020282531 0.04500936
0.041038163 0.03289588 0.053572513 -0.00404299 -0.0075580007 0.0094162375 0.055144925 0.0014530453
0.019878877 -0.03634206 0.018226365 0.013450498 0.031767573 0.015015509 -0.04476701 0.002900496
0.05606611 -0.013720419 0.026632283 -0.007743761 0.023571031 -0.07518048 -0.064738415 0.023910336
0.0439153 -0.02717065 0.017401459 0.06403934 0.023363722 -0.0548209 -0.06737961 0.10042755
0.14774957 0.09191139 0.05404402 -0.12272712 0.06053285 -0.12759288 -0.06289514 0.06196913

base_model.model.segformer.encoder.block.0.0.attention.self.value.lora_A.weight f4 [16, 32]
00000000: e03d dcbd d63d b23d e5fd 583d 7ffb eb3d
00000010: 97c3 47bd 33a5 903d 7c3a 563c 10f1 56be
00000020: 8e28 24bc 5ad6 a73d df7f 5bbd 40e1 3e3d
00000030: 579f debd aa51 c63d 0f0a 1f3e 7847 1e3e
00000040: 6fe2 0ebe a745 0b3e e7eb f8bd 2b3d 13be
00000050: 6e01 1f3e 1fa5 79bd 8c7d 573d 24a0 e1bd
00000060: fd31 2cbc 0e1f 603d 258c e3bc ab82 30be
00000070: 3a2e b43d 3f1e 033e eb6b 2cbe 844a ad3b
00000080: 41a4 573d 8b46 d7bd 49c2 0dbb dc7d 0d3e
00000090: d326 c9bc 2bfc c0bd 680e 183e 6381 c8bd
000000a0: 5530 8c3d f7fb 18be 3e1d a33d 363f e4bc
000000b0: da7c bbba 5857 17be 654d 403c 4f56 b0bb
000000c0: e45a 043e 920d 1dbe 152b 4dbb 30d3 823e
000000d0: 2b96 2d3d 124b f53c cce6 a0bd 3ed5 1fbe
000000e0: d96c de3c 30d6 8b3d 258c f3bd 04b8 0a3e
000000f0: 9322 84bd fda0 903d adfb db3c 54cf c2bd
00000100: 5ebe 983d bd96 553e d57a 0dbe 994a 4a3c
00000110: df0a 673d dbe3 95bc ad71 f2bc 4c5d ad3d
00000120: 170d 393e 3237 8abe d210 1d3e 1860 14bd
00000130: 1b04 923d 0094 423d 8093 8e3d 9a0d b33d
00000140: d24a 7aba 5e26 923d 100c 36bd d354 dbbb
00000150: 483b 0f3d 14c2 61bb 6890 92bc e26c dc3d
00000160: 00c0 acbd f74f e3bd fb00 98bd 6507 883d
00000170: bb7c 2fbe f6de e9bd e20d 8ebd 9230 85bd
00000180: afff ec3d b34e d1bb 6847 4a3d 28ac d6bd
00000190: 11c3 96bc 1210 39be 03a3 633d 9f7d 243d
000001a0: 31c6 043d 321e 6bba 7dd9 20bc 82a2 3a3e
000001b0: 05d0 01be 49c3 ce3b 7d9c 3d3e 8b7a b2bd
000001c0: c72d d3bc a73a 3bbe 6633 613e 8e13 6a3e
000001d0: 8079 df3d df44 be3c 981c a9bd 43b2 20bd
000001e0: 4828 d83d 91f5 f5bd 83db 093d d26a 353e
000001f0: 94e6 09be b48b 21be ee44 d2bb d71a eabd
00000200: a3d9 bbbd a313 cfbd 4c56 d93d 3218 1f3e
00000210: 890a 8e3d fcbb 3f3d 5b33 2c3c 6055 54be
00000220: e1da 223e 0b77 b03d 05b9 873c e6be ebbd
00000230: 8ebc 3ebd bb8b bebd 59e0 523d bc08 4a3e
00000240: 33c1 a9bc 1df6 1a3e 18e0 e0bd 9370 98bd
00000250: 26eb c93d 1dbd 643e eabf 54bc 798a adbc
00000260: 3500 b6bd 23ec 583e 3030 a2bd 2dca fe3c
00000270: bbfe b03c bef4 a4bd 8cf6 933c f1b9 043d
00000280: 37d9 b6bd 7895 8d3d 05b3 98bd 375c 83bc
00000290: a2cd 4f3d 8d8b 97bd 5d36 29be e33b 91bd
000002a0: 000c 483e ff8a 063e e4e8 d73d ef9e 143d
000002b0: 4ae7 50bc adeb e1bb 4a7c 963d 4399 2e3e
000002c0: 7c49 573e 9f92 aabd 049e 593d 8ad6 113d
000002d0: 87cf b0bd 2a4f 753e 31e5 79bd 4e58 ae3d
000002e0: 22b4 54bd 6b27 96bd 16bd 123d 50bb 163e
000002f0: 9234 cfbd d818 0cbd fc4c d0bd 1918 8fbe
00000300: cce0 32bb 3f0e 50bd e3fc 2ebe 8e61 efbd
00000310: ef49 bc3c 5efc 8dbc 868c 073e 6867 183d
00000320: 169d a73c 103c e5bd 4ffc 623d f130 20be
00000330: 2c54 1cbe 0687 c03d 4703 d3bd cd09 0cbe
00000340: 1ace 09be fe63 26bd 50ff af3d 2127 56bc
00000350: a083 383e b4e7 89bd bb5c 78bd 41a0 bfbc
00000360: aee3 493e c26d 6dbc 1396 423e bbb5 a4bd
00000370: 3057 92bd c0e2 ab3d 9375 fbbd 6f92 3dbd
00000380: e36a 86bd 7d36 e5bd 1ac2 0b3d d88b 393d
00000390: 9aaa 273e 3ebf 96bd 601e f8bd 0a11 8bbc
000003a0: f534 483d 705e e23d df3f e0bd 5298 09be
000003b0: 6ea1 4b3e ff48 7b3d 0418 943d fb45 1abe
000003c0: d7d8 1c3e e59e 23be 5113 33bd fa05 e63d
000003d0: 0cdc 87bd a6db 2bbe f8c8 a53d d673 0e3e
000003e0: df03 393e 1ea2 4abd 5a97 1a3e 1451 45bd
000003f0: 8abb 29bd e846 443d 6dc3 dd3c ad31 f8bd
-0.10753989 0.087032005 0.052976508 0.115225784 -0.048770513 0.07062759 0.013075467 -0.20990396
-0.010019435 0.08195181 -0.053588744 0.046601534 -0.108702354 0.09683545 0.15531181 0.1545695
-0.13953565 0.13600789 -0.1215437 -0.14378802 0.15527889 -0.060948487 0.052609965 -0.110168725
-0.010509965 0.054717116 -0.027776787 -0.17237346 0.087978795 0.12804507 -0.16838042 0.005288424
0.05264688 -0.10511502 -0.0021630696 0.13817543 -0.024554646 -0.09423097 0.14849246 -0.097903036
0.06845156 -0.14939867 0.07964562 -0.027862173 -0.0014304176 -0.14779413 0.011737202 -0.0053813825
0.12925297 -0.15337208 -0.0031306196 0.25551748 0.04237954 0.029943023 -0.07856521 -0.15608689
0.027151512 0.068279624 -0.11891965 0.13546759 -0.06451907 0.07061956 0.026853407 -0.09512201
0.07458185 0.20858283 -0.13816388 0.012346887 0.05640685 -0.018297127 -0.02959522 0.084650606
0.180714 -0.26995236 0.15338448 -0.036224455 0.07129689 0.047504425 0.06961727 0.08742829
-0.0009547892 0.07136224 -0.044445097 -0.0066934614 0.034968644 -0.0034447955 -0.017891124 0.10762955
-0.084350586 -0.110992365 -0.07422062 0.066420354 -0.17137425 -0.114194795 -0.06936242 -0.06503405
0.11572205 -0.0063875555 0.049384505 -0.10482055 -0.018403562 -0.18072537 0.055575382 0.040158864
0.032415573 -0.0008969038 -0.009817478 0.18226054 -0.1267701 0.006309901 0.18516727 -0.087147795
-0.025778664 -0.18284093 0.21992263 0.22859022 0.10911846 0.0232262 -0.08257407 -0.039232504
0.10554558 -0.12009729 0.03365661 0.1771653 -0.13466865 -0.15775949 -0.0064169085 -0.114309005
-0.0917237 -0.10111167 0.10612163 0.15536574 0.06935603 0.046810135 0.010510291 -0.20735693
0.15903808 0.08616456 0.016567716 -0.1151102 -0.04656654 -0.09303995 0.051483486 0.19729894
-0.020722007 0.15132947 -0.109802425 -0.07443347 0.09859304 0.22337766 -0.012985209 -0.021184193
-0.08886758 0.21183829 -0.07919347 0.031102264 0.02160584 -0.08054493 0.018061899 0.03240389
-0.08928149 0.069132745 -0.0745602 -0.016035182 0.050733216 -0.07399664 -0.16524644 -0.070915006
0.19535828 0.1313896 0.10542467 0.036284383 -0.012750456 -0.00689455 0.07347925 0.17050652
0.21024126 -0.08328747 0.05312921 0.03560499 -0.08633333 0.2395598 -0.06100959 0.085129365
-0.0519296 -0.07331737 0.035824858 0.14719892 -0.10117449 -0.03420338 -0.101709336 -0.27948073
-0.0027294634 -0.050794836 -0.17088656 -0.11688529 0.022984473 -0.017332252 0.13237199 0.03720799
0.020460647 -0.11193097 0.0554164 -0.1564367 -0.15266484 0.09400754 -0.103033595 -0.13675614
-0.13457528 -0.040622704 0.08593619 -0.0130708525 0.18018961 -0.06733647 -0.06063531 -0.023391845
0.19715759 -0.0144915 0.19002561 -0.08042475 -0.07145536 0.083928585 -0.12278285 -0.046282228
-0.06563356 -0.111920334 0.034120657 0.04529938 0.16373673 -0.07360695 -0.121151686 -0.016975898
0.04887863 0.11053169 -0.109496824 -0.13437012 0.198858 0.06134891 0.07231143 -0.15065758
0.15317093 -0.15978582 -0.043719593 0.11231609 -0.066337675 -0.16783008 0.08094972 0.13911375
0.18067883 -0.049471013 0.15096799 -0.048173025 -0.041438617 0.047919184 0.027070725 -0.1211885

base_model.model.segformer.encoder.block.0.0.attention.self.value.lora_B.weight f4 [32, 16]
00000000: dc62 9ebb 75e1 ff3c 8502 a23c 6503 593d
00000010: 02a9 cb3a eeff 2e3d c68e 2abd a174 e7bc
00000020: 77d7 5d3c 229c 84bc 7baa 2d3b 3d88 43bc
00000030: fb88 22bd 600f 88bc b282 c73b 67c1 0f3c
00000040: 78f7 39bd 16f2 b3bc b6a0 a5bb 6e6c 003d
00000050: 1d77 afbc 1b52 ea3c 0f22 25bc dc24 123d
00000060: 13d6 d7bc 54d6 2c3c d1f8 da3c d959 25bc
00000070: f10c 03bb 74cc 783c b65f c8ba 6f56 d3bc
00000080: aaf1 6d3c f043 873c 61a3 75bb 6111 173d
00000090: e5d2 5b3b a3b5 ffbb dbac edbc fbfa 1ebd
000000a0: f348 fdbb 9d89 90bd dbc8 2cbc c4d5 67ba
000000b0: a8b4 76bc cfa5 a8bb 50df 293c 645d d63b
000000c0: 748c 81bb 03f4 30bc 679b 51ba b471 2dbb
000000d0: 92a9 d8bb 9123 b3bb 6a01 d0ba 86dd 053c
000000e0: 02e7 8cbb 7f52 07bc 6410 23bb cf19 75bc
000000f0: 99f2 9a3c 025c 163c 0a40 86bc 87cf d43b
00000100: 3676 97bc 4657 a6bd 25c2 663c d572 af3b
00000110: 7856 cfbc b33c 9f3d f352 76bd 0846 013d
00000120: 882b bbbc 674d 93bb 406b f63c c593 cdbc
00000130: 8432 30bd dfa1 823c cc0f bdbb ae6a b8bc
00000140: f628 c8bc 9bd6 4c3c 4c99 e93b a7ff 00bd
00000150: be4d abba 0385 9dbb 5567 10bc f553 db3c
00000160: a203 c13b 7c1f 113d d633 3ebd 0465 cfbc
00000170: 60ba 013d 1f3b 123d 9667 3cbd 6f67 d03c
00000180: 1e58 4cbc 42b5 ba3c 181b f5bb aae6 f23c
00000190: 4bc6 933b 029a 1fbd 3634 673d ced2 aa3b
000001a0: ed6f 1bbc c5d4 863c 91de cd3b 6de7 e23c
000001b0: 3d8c 8c3c 04d6 3cba d751 943c 57b4 42bc
000001c0: 9981 83bd 4cb5 3a3d 18d4 a4bb 4562 ec3c
000001d0: d53f 693b 4f50 73bc eb36 843c c508 623d
000001e0: ed56 f2b9 121e 683d 3b30 01bd 1b74 74bc
000001f0: f313 5b3d 114e f33c 9339 66bc 8504 b0bc
00000200: 8da2 92bc 61b6 83ba 1b20 acbb e81c f1bc
00000210: c098 4abb c945 d9bc 4050 ff3c fb8c 173d
00000220: 5186 19bc b1eb 6a3d e2d7 9ebc 2d6f 9539
00000230: 1a3b 683d 9362 c33c b919 73bc 4f81 e0bb
00000240: 8e30 063c c267 cabc 2fea e43c ed5c 9cbc
00000250: 74d0 523b 36a6 353d 6232 2dbd 0009 92bb
00000260: a457 f33c 4a9f d3bb e67e 85bc 9c73 e1bc
00000270: a84a 8ebc 1a91 983b ec57 01bd 36cd a03c
00000280: 9d9d ab3a 4503 b9bc fcb3 6b3c 6b9d 08bd
00000290: adc5 ac3c 8d6f 04bc bdc6 003b 0169 b13a
000002a0: 3f29 c43c bca0 b7bb 0bbd 5cbc 3e17 37bc
000002b0: 6de6 8b3c 333c 823c 07d5 0bbc 18e4 e93c
000002c0: 9f97 35bc 834e b4bb 8595 253c 142d 1e3c
000002d0: 798f 8dbc 5318 b03c 0b60 e4bb f181 df3c
000002e0: 3b34 1abc 127c 1c3d 471b 4bbb caf1 30bc
000002f0: 9652 96bb 6656 783c bac1 97bc cef9 fd3b
00000300: 9b27 243d fdaa 10bd d250 b13b c5fb 9f3c
00000310: f90f 43bd 7d5b 133c 357b 0fbd 3b11 d5bc
00000320: ecf3 f2bc 9428 7ebd 2b2b c1bc b7b7 01bc
00000330: 1859 0dbd 982f 9f3a a65e 67bc 5c13 2cbc
00000340: e5c6 823c 9ceb e13c 456e d9bc 08e1 b8bb
00000350: df7c a83a 2040 5fbc 8679 b73c b7a5 6e3b
00000360: 9cf0 63bc fed9 253d b727 aa3c ab61 653c
00000370: 7d60 4c3c ba29 86bb 5fb3 aaba 29f4 eabb
00000380: 5b1f b8bc 787e 773c 3c5e 173b 7eae 393b
00000390: 31e4 653c a4e1 7c3a 771a 76bc 9d8c bb3c
000003a0: f180 ab39 5d4b 9d3c 3a8a a7bc a624 81bc
000003b0: 335b d23c a702 de3c be25 b6bc df31 a33c
000003c0: dc7e 6ebc 7383 3cbc 5f09 153d 2565 0e3c
000003d0: cf63 f0bb 65c5 1d3c 6ee8 873c bcb8 2bbb
000003e0: e30b 3f3c ecbd 0d3d 57ea 43bb 7dfe 3b3c
000003f0: 1e48 83bc 15ea feba 61c4 983c 6240 8b3c
-0.0048335623 0.031235436 0.019776592 0.052981753 0.0015538039 0.042724542 -0.041640066 -0.028253855
0.01354014 -0.016187731 0.002649932 -0.011934337 -0.039681416 -0.016608894 0.006088578 0.008774138
-0.04540202 -0.021966022 -0.0050545586 0.031353407 -0.021419102 0.028603604 -0.010078921 0.035679683
-0.026347196 0.010549147 0.026729973 -0.010092222 -0.0019996727 0.015185464 -0.0015287313 -0.02579805
0.014522949 0.016511887 -0.0037481415 0.03688181 0.003354245 -0.007803635 -0.029013088 -0.038813572
-0.0077296435 -0.07057498 -0.010545935 -0.0008843804 -0.01505772 -0.005146719 0.010368183 0.0065418947
-0.003953511 -0.010800364 -0.0007995874 -0.0026465477 -0.006612011 -0.0054668863 -0.0015869562 0.008170491
-0.004299999 -0.008259415 -0.0024881596 -0.0149597665 0.018914508 0.00917721 -0.016387958 0.0064944657
-0.018488985 -0.08122115 0.014084374 0.005354265 -0.025309786 0.07775249 -0.0601377 0.031560928
-0.022847906 -0.004495311 0.030080438 -0.025094876 -0.043016925 0.015946327 -0.0057697054 -0.022511806
-0.024433594 0.012502338 0.00712887 -0.03149381 -0.0013069434 -0.004807116 -0.008813699 0.026773432
0.0058903256 0.035430416 -0.046436153 -0.025316723 0.03167188 0.035700914 -0.045997225 0.025439946
-0.012472181 0.022791509 -0.0074800365 0.029651005 0.0045097223 -0.038965233 0.056446277 0.005213118
-0.009487134 0.016458878 0.0062826355 0.027698243 0.017156715 -0.00072035217 0.01810543 -0.011883817
-0.06421203 0.045583054 -0.0050301664 0.028855452 0.0035591025 -0.01485069 0.016139468 0.055184145
-0.00046222602 0.056669302 -0.031540137 -0.01492026 0.053485822 0.02970031 -0.014051813 -0.02148653
-0.017899776 -0.001004886 -0.0052528507 -0.029432729 -0.00309138 -0.026522534 0.031166196 0.036999684
-0.009370402 0.05735368 -0.01939005 0.00028502327 0.05669699 0.023850715 -0.014837676 -0.0068513523
0.008190287 -0.024707679 0.027943699 -0.01908728 0.0032167705 0.044347964 -0.042284377 -0.0044566393
0.029704876 -0.0064581977 -0.016295861 -0.027520947 -0.017369583 0.0046559693 -0.03157799 0.019629102
0.0013093237 -0.022584567 0.014386173 -0.03335325 0.021090353 -0.008083236 0.0019649707 0.0013535322
0.023945449 -0.005603878 -0.013472806 -0.011174975 0.017077649 0.015897846 -0.008534676 0.028551146
-0.011083513 -0.0055025234 0.010106449 0.009654302 -0.017280327 0.021495974 -0.006969457 0.02728364
-0.009411867 0.03820426 -0.00309916 -0.0107998345 -0.0045874817 0.015157318 -0.018524993 0.0077507263
0.040076833 -0.035319317 0.005411246 0.019529233 -0.047622655 0.0089939805 -0.03502961 -0.026009193
-0.029657327 -0.062050417 -0.023580154 -0.007917336 -0.034508795 0.0012144921 -0.014121687 -0.0105026625
0.01596398 0.027578168 -0.026541838 -0.00564206 0.0012854597 -0.013626128 0.022396814 0.0036414692
-0.013912346 0.040491097 0.02077089 0.014000337 0.0124741765 -0.0040943297 -0.0013023427 -0.0071702194
-0.022475889 0.015105836 0.002309694 0.0028332765 0.014031456 0.000964666 -0.015020958 0.022894198
0.0003271173 0.019200975 -0.020451654 -0.015764546 0.025678253 0.027100874 -0.022234794 0.019921241
-0.014556613 -0.011505949 0.03638589 0.008691107 -0.007336117 0.009629582 0.016590323 -0.002620264
0.011660549 0.03460495 -0.0029894316 0.011474249 -0.0160256 -0.0019448424 0.018648328 0.016998474

base_model.model.segformer.encoder.block.0.1.attention.self.query.lora_A.weight f4 [16, 32]
00000000: d45d 603e 15b6 37be 12d7 2c3e eada 0dbe
00000010: 6fea 23bd 5d71 43be 43b2 003d 5b5e 13be
00000020: c5b4 ea3d 9a6f d43d f15b 453e cfac 8fbd
00000030: e01e efbd 6b60 f03d 3d9b 41bc 39b8 b33d
00000040: 173d daba 3664 6ebe 3047 5e3e 2c17 d83c
00000050: c3cd 733d c2db 8c3d c876 9abd 76d8 57be
00000060: 30b2 3d3d a473 733e 5a41 85bd 10d3 ed3c
00000070: a680 0b3d 2c75 1cbe f6a1 483e 24cb 57bc
00000080: 723c e6bd 4829 ce3c 309f 0ebe 8dd7 b1bd
00000090: 986b 53be 5cb7 4bbe 8d9a 8b3e 62c7 a83d
000000a0: 9a92 e53d a53f e73c 4393 8cbd f0b9 aa3d
000000b0: 852c a4bd 602e 27bd 54ce 853d e6b6 923d
000000c0: 577c 483e c39c 5b3e 782b 21bc 930f 89bd
000000d0: a93a b4bd 3565 00bd 46de 0c3d 7e64 3c3e
000000e0: c114 1cbe 557d abbc 1dec 01bc b1d7 2ebe
000000f0: 167d 62be 0b00 853b b4d5 e1bd 56e3 8b3d
00000100: 6635 fdbd 407c 173d c57a 15be 465a 10bd
00000110: f6ba 5b3e 04f9 373d 882d 293c b1c9 e53d
00000120: a763 823d 7ff1 343e 9e20 80bb b44a 6f3d
00000130: 4530 503e 43e6 a2bd 07db 453e 242c 713d
00000140: 3d41 4b3e 72c9 6c3e 4823 103e ef75 673d
00000150: c906 393e 942c 87bc 8a0c 3ebe eced 01bd
00000160: daf0 e83d d16a 2e3d 943e 4b3e 0060 223d
00000170: 5876 a23d c99a a7bd 7194 3cbe ea47 07be
00000180: 31aa e53c a7cd f9bd ec58 e33d 232a 873d
00000190: a8e4 c5bd 1469 c53d 2509 8cbd eeeb 0abe
000001a0: cf7a 49be b4ab 13be 2612 8b3d 8906 313d
000001b0: b2b9 af3c e73d 863d ee29 06be 3c53 30be
000001c0: f2f9 e03a bd1d 803d c3a5 1dbe a5d1 ff3d
000001d0: 1296 36be 3850 283e 7110 3f3e 08b7 94bd
000001e0: 3fd5 583d 0dfc ac3c a9c5 acbd 746f aabd
000001f0: 8e52 5a3e f866 f3bd bf3b 26be 408c a73d
00000200: d769 333e b888 2c3c 5187 a1bc 38fd 8d3d
00000210: e362 1ebb e477 9b3d 7e6b a23d f30f 123d
00000220: 77ca 943d ada7 10be 21ab a73e 7374 763e
00000230: 9eb8 733d 4e28 28bd d650 a2bd 9bd7 0e3d
00000240: 1a19 12be 7d21 06be fef8 05be 6834 73bd
00000250: 866f d63d de0b 0838 e2d2 6d3d c3ad 4abd
00000260: 205c 17be 319a 803e 147c ebbd c54b c2bd
00000270: 5b2b 403e b147 163e 3202 dabd 9d01 8bbd
00000280: a0e3 e6bd aca6 6a3e a128 e6bd 8cde 863c
00000290: cb1b e33d cb8d 18be 8514 f43d 521c ad3d
000002a0: f6e7 dabd 4394 fa3d 09c1 37be aa90 95bd
000002b0: 0e7e 4e3e ee1c cf3a b74f 83bc 78b9 513d
000002c0: 493c ec3d 7cbf 673e 35f8 c13d edd3 a43d
000002d0: f49f a53d 3c00 bdbc 0139 1dbe 6a2b 5d3e
000002e0: ac3d c4bd 1376 6bbe 8620 bd3d 855e 243e
000002f0: 694a d83d 1183 06be 54e5 49be d5ea 9cbd
00000300: d4eb d5bc 904e 0fbe fca4 b3bc d62e 11be
00000310: 0989 223e 56d8 1abe f5e7 0dbe e29b 3dbe
00000320: ef76 cb3d fb90 56bd e0c1 183e e580 0b3e
00000330: 252f c13d 8fcf 483d 246d 393e 7422 d53d
00000340: 91c7 61bd b5e2 d3bd a2a7 003e 7211 0c3d
00000350: cd5c 713d 9572 2e3c 8b16 49be 2171 90be
00000360: a59a d1bd e90f fa3d e0d8 c4bc 0368 273e
00000370: c2bd 103e 3a41 63bd f576 433b e28b c23d
00000380: 48da f9bd b70f b9bd 3cb6 6fbe 0117 043d
00000390: 2b0c 52bd 688b f63d 96a5 53be 095d fa3d
000003a0: d8f8 1f3d 3e65 42be 6ed8 353e 576e 083e
000003b0: f0cb 84bd cf0f 98bd 09b4 663d 2780 b73d
000003c0: 809b 73bc 2b89 923d b6d6 80bd bcf5 613e
000003d0: a9ef 15bd 1bdc 3a3c 76df 50be 7132 2ebd
000003e0: 864f 0c3e 81da 643e fccd 823e 1bdf 1f3e
000003f0: 4213 d83d 82c9 8bbd 7c20 9c3d 42e1 1ebe
0.21910793 -0.17940553 0.16878918 -0.1385304 -0.040018495 -0.19086213 0.031420004 -0.14391463
0.1146026 0.10372849 0.19273354 -0.070153825 -0.11675811 0.1173714 -0.011816797 0.08775372
-0.0016650286 -0.23280415 0.21706843 0.026378237 0.0595224 0.06877853 -0.07542187 -0.21078667
0.04631251 0.23774582 -0.065066054 0.029031307 0.034058236 -0.15279073 0.19593033 -0.013170991
-0.11241998 0.025166169 -0.13927913 -0.08683691 -0.20646513 -0.19894165 0.2726635 0.08241154
0.11209603 0.02822859 -0.068640254 0.08336246 -0.08016304 -0.04081571 0.065334946 0.07163791
0.19578682 0.21446519 -0.009837024 -0.06692424 -0.08800251 -0.03134652 0.034391664 0.1839771
-0.15242292 -0.020933786 -0.007929829 -0.17074467 -0.22118029 0.004058843 -0.11027089 0.0683047
-0.123637006 0.03698373 -0.14597614 -0.03524234 0.21458039 0.044915214 0.010325797 0.1122011
0.063666634 0.17670248 -0.0039101383 0.05842085 0.20330913 -0.07954075 0.19321834 0.058879986
0.19849105 0.2312372 0.14075959 0.056508955 0.18068995 -0.016500749 -0.18559471 -0.03172104
0.11374064 0.042582337 0.1984809 0.039642334 0.079327285 -0.0818382 -0.18416001 -0.13211027
0.028035255 -0.12197428 0.11100945 0.06599834 -0.09662753 0.09639183 -0.06837682 -0.13566563
-0.19675754 -0.14420968 0.06790571 0.043219123 0.021450851 0.06554776 -0.13101932 -0.17219251
0.0017164333 0.06255672 -0.15395264 0.124911584 -0.17830685 0.16436851 0.18658616 -0.07261473
0.052937742 0.02111628 -0.08436138 -0.08322039 0.21320555 -0.11884874 -0.16233729 0.081810474
0.17520843 0.010530643 -0.019717844 0.06933063 -0.0024167828 0.07591227 0.07930659 0.03565974
0.072651796 -0.14126463 0.32747748 0.2406786 0.059502237 -0.041054063 -0.079255745 0.034873586
-0.14267388 -0.13098712 -0.13083264 -0.05937615 0.1047049 3.243598e-05 0.05806244 -0.04948212
-0.14781237 0.2511764 -0.114982754 -0.09487108 0.18766539 0.14675786 -0.1064495 -0.06787417
-0.11273885 0.22915143 -0.11238218 0.01646354 0.110892855 -0.1489784 0.11917976 0.08452667
-0.10688774 0.1223531 -0.17944731 -0.07302983 0.20165274 0.0015801468 -0.016029222 0.051202267
0.11534936 0.22631639 0.0947117 0.08048234 0.08087149 -0.0230714 -0.15353777 0.21598592
-0.095820755 -0.2299426 0.09234719 0.16051681 0.105610676 -0.13135935 -0.19716388 -0.07661978
-0.026113428 -0.13994813 -0.021929257 -0.14178023 0.15872587 -0.15121588 -0.13858016 -0.18516496
0.09934794 -0.052384358 0.14917707 0.13623388 0.0943282 0.04902607 0.1810804 0.10406962
-0.055121962 -0.10345975 0.12563947 0.034196325 0.058926392 0.010647436 -0.19637506 -0.2821131
-0.10234574 0.12210066 -0.024029195 0.16348271 0.14134887 -0.055482127 0.0029825543 0.09499337
-0.12199837 -0.090362005 -0.2340936 0.0322485 -0.051281136 0.120383084 -0.20668635 0.12224776
0.039055675 -0.18983933 0.17758343 0.13323341 -0.064842105 -0.0742489 0.05632404 0.0895999
-0.014868617 0.07155069 -0.06290953 0.22066396 -0.03660551 0.011405016 -0.20397744 -0.042528573
0.13702211 0.22348978 0.2554778 0.15612452 0.10550548 -0.06825544 0.076233834 -0.15515617

base_model.model.segformer.encoder.block.0.1.attention.self.query.lora_B.weight f4 [32, 16]
00000000: 25eb 883a c32f cbbd fe5d d13b 011d 6c3d
00000010: 085b a83d 2899 02bd c685 3e3d c6ce 2e3c
00000020: 7719 b5bd e585 b1bd 5e18 a63c 55f8 bf3c
00000030: c9e8 4c3d f07a 4dbd 7bb8 21bd 054b c8bb
00000040: f32a 553d 5f31 abbd c219 13bb 5904 fd3a
00000050: f964 013c ccb3 cebc 5379 1f3d ed8e 473d
00000060: 816b 9fbc 7a85 c2bd 2c0e 8e3d 21c7 ad3c
00000070: e799 cc3d 6173 953c 4414 373c 831a 993d
00000080: 8783 043d cd96 82bd 9bc2 c33c 2c8f 9cbd
00000090: 865f 0a3d 4c4b 883b 0a04 1e3d fba4 853d
000000a0: 2698 31bd 8524 9cbd e5f6 803c efad 61bc
000000b0: 7b00 b63d 0349 b1bd dcfa a73c 8c07 633d
000000c0: 2736 7abd 54a6 853d 2936 e1bc 6666 423c
000000d0: cffc 5ebd a788 b53c f9b5 a5bd ca5f a5bd
000000e0: dd7f 983c 41f7 ac3d 518c dfbb c3b6 1cbd
000000f0: 47d1 9ebd 46db 46bc c1fb bbbc e9fe 68bd
00000100: 30e0 b23c e094 983d 496a 4abb 9d83 a6bd
00000110: b142 7dbd 3ffb 023d 3cd9 8e3d 5488 c23c
00000120: cefb b23d 0289 4d3d 876a 09bc e545 72bb
00000130: 8f32 9c3b 0e4d ee3d 843d af3d 32db d13c
00000140: 3631 173e 79c9 263c 6d0e 75bd 6877 97bb
00000150: 4295 7ebc 7c9b ebbd 9f6a a53d 7294 4dbd
00000160: a3e9 b13d 6ffe 6c3a e2ad b4bc 0615 783d
00000170: ee05 24bd 067e 5a3d 308e 8d3c 4931 d83d
00000180: 0c5c bebd 8b12 3cbb 9386 4cbd 4f54 813d
00000190: 6c66 acbc 8645 48bd bf28 cbbd 1a89 543d
000001a0: 7c84 62bc bb9e 10bd 5f1f 893d eec4 cd3d
000001b0: 6d9d 21bd a546 9f3d cad3 95bd ffe2 88bd
000001c0: f74a 94bd 5426 02be e553 833d 1de6 5cbd
000001d0: 4a05 53bd 3e99 2a3c 46bc edbc e424 773d
000001e0: 23a6 0bbe 26ac afbb a8ba 023d b447 8f3c
000001f0: 370d c9b9 c291 edbd 1dd9 4ebc 9317 0d3b
00000200: e12b 3d3d 6a50 c83c ce5b 893d 993b 03bd
00000210: 6752 03bd 1e1c 783b 210c d13d 4abc 87bd
00000220: 4641 3d3c 9636 423d faca 92bd 556c 383b
00000230: ffb7 b7bd 0e08 fabc c264 3f3d c409 b73c
00000240: e9b4 7abc 2326 d2bd fd2e e3bd 1e2c 873d
00000250: 18a6 de3d 8585 02be 6a46 803b 0174 0ebd
00000260: 56fd adbd 6094 02be 9226 1b3d 0bb0 943d
00000270: 9f6c c8bb 2958 2bbd f7a6 043d 9a7e c7bb
00000280: 6ed3 c5bb 5408 883d 8c28 083d b898 033c
00000290: 4783 0cbe 2eb6 273d 4285 4abd 16e1 483d
000002a0: d5e3 893d 6317 883d 92eb 533d 492a 693c
000002b0: f076 38bc e2db f53d 068c 8cbd 36dc ba3b
000002c0: 2e66 c03d fc84 88bc 4bd2 9d3d 0baf 4abc
000002d0: e96a edbd 60ab 813d 64bd b33d dcce e2bc
000002e0: a952 2e3d 27b8 503d 24e1 fe3c 866f a9bd
000002f0: 618e 643d 9754 fc3d 7738 633a 2683 e63d
00000300: 68bc 5fbb fa82 47bc 5941 763d da54 093c
00000310: 9a6c 70bb c781 a73d 5959 ff3b 91a8 ab3d
00000320: 0393 983c 3a49 0abd 25e6 fc3d e280 823a
00000330: 164b c03d 3aab 9e3d ae1f 71bd 3721 c2bc
00000340: e7a2 a1bd 9178 bebb 790b 83bd 52af 2e3d
00000350: 33a6 83bd 017f 56bd a33c 8cbd cf80 90bd
00000360: 9b63 8fbc de24 383d 612a 523b 457b b13c
00000370: 6675 e4bd 1ee4 053c d06d fb3c 738a 1fbd
00000380: 37ef 4e3d c741 cfbd af2d 9d3d 2308 86bc
00000390: e0be 793c 4a52 94bb 973a ea3d 6e95 cb3d
000003a0: e036 bfbc 36e5 68bd 7684 57bd 8f05 5b3d
000003b0: 4afd ad3d 3c55 50bd 0359 203d 41df 953d
000003c0: ed2f 09bc f7fa 03be 31e8 8bbd f297 523d
000003d0: 7346 893d d65d 8abd 0d27 883c e797 4b3c
000003e0: 8e82 a6bd 31b8 03be c27a 403d 42d9 123d
000003f0: 5aef 803d f164 2ebd 9e74 593c e321 bf3c
0.0010446055 -0.09921219 0.0063893786 0.057644848 0.08220488 -0.031884342 0.046514295 0.010669416
-0.08842748 -0.086681165 0.020275291 0.023433844 0.05002669 -0.05016607 -0.039482575 -0.0061124587
0.052042913 -0.08359026 -0.0022445773 0.0019303664 0.007897609 -0.025232218 0.038934063 0.04872029
-0.019460442 -0.09498115 0.06936297 0.021213116 0.09990292 0.018243494 0.011174265 0.0747576
0.032351997 -0.06376419 0.023896506 -0.07644495 0.033782504 0.0041593667 0.03857807 0.06525608
-0.04335799 -0.07624153 0.015742728 -0.013774379 0.088868104 -0.08656504 0.020505361 0.05542712
-0.0610868 0.06525865 -0.027491646 0.011865234 -0.054440316 0.022159887 -0.08091349 -0.08074911
0.018615657 0.084455974 -0.006822147 -0.038260233 -0.0775476 -0.01213724 -0.022947194 -0.056883726
0.021835417 0.07450271 -0.0030886105 -0.08130572 -0.06183118 0.03197789 0.06975028 0.023746647
0.08739434 0.05017949 -0.0083872145 -0.003696793 0.0047667692 0.11635791 0.08556655 0.025617216
0.14764866 0.010179871 -0.05982821 -0.0046223886 -0.0155385155 -0.11504266 0.08076977 -0.050190397
0.08687141 0.0009040599 -0.02205557 0.060566925 -0.040044717 0.05334284 0.017279714 0.105562754
-0.092949 -0.0028697576 -0.049933027 0.06314909 -0.021044932 -0.048894428 -0.09919881 0.051888563
-0.013825532 -0.035307627 0.06695437 0.10047327 -0.039456774 0.07777146 -0.07315786 -0.06683921
-0.07240861 -0.12709934 0.06412486 -0.05393039 -0.051518716 0.010412512 -0.02902044 0.060337916
-0.13637595 -0.005361098 0.03191629 0.017490245 -0.00038347553 -0.11600067 -0.012625006 0.0021528944
0.046184424 0.024452407 0.067069635 -0.03203926 -0.032061007 0.0037858556 0.102073915 -0.0662771
0.011551207 0.04741534 -0.07167621 0.0028140743 -0.08970641 -0.030521419 0.04672695 0.022343524
-0.015301921 -0.1026118 -0.11092947 0.066002116 0.108715236 -0.12746246 0.003914644 -0.0347786
-0.084955856 -0.12751913 0.03787858 0.0726014 -0.0061164643 -0.041832123 0.032385793 -0.00608809
-0.0060371673 0.066422135 0.033241794 0.008032016 -0.13721953 0.040945224 -0.04944349 0.049042784
0.06732909 0.06645086 0.05173833 0.014231273 -0.011258826 0.1200483 -0.06862645 0.0057025207
0.09394489 -0.016664974 0.07706126 -0.012370835 -0.11592657 0.06331515 0.08776358 -0.027686529
0.0425593 0.05095687 0.031113215 -0.082732245 0.055799846 0.12320822 0.0008667777 0.11255483
-0.0034139398 -0.012177223 0.060120914 0.008382047 -0.0036685825 0.0817905 0.0077926335 0.08381761
0.018624788 -0.03376124 0.12348584 0.0009956623 0.093893215 0.077475026 -0.058868103 -0.023697479
-0.07892399 -0.0058127125 -0.063986726 0.042647667 -0.06428184 -0.052367214 -0.06847503 -0.07055818
-0.01750355 0.044957034 0.0032068717 0.021665225 -0.111552045 0.008172063 0.030692011 -0.038950395
0.0505211 -0.10119968 0.07674729 -0.016361302 0.015243262 -0.004526411 0.114369564 0.09940611
-0.023341596 -0.056859218 -0.05261656 0.053472098 0.08495577 -0.050862536 0.03914739 0.07317973
-0.008373243 -0.12888704 -0.06831396 0.051414438 0.0670289 -0.06756179 0.016620183 0.012426353
-0.0813037 -0.12863232 0.04699207 0.035851724 0.06295653 -0.042576734 0.013272433 0.023331588
